cnnfcnweight.npy (npy, 270480 bytes, 1 tensors)

array f8 [3380, 10]
000000 26 d3 f5 1c b3 60 95 3f df 24 ab e0 de dc a1 bf
       0.020876692431062292 -0.03488823406730445
000010 51 96 3d 99 2f f9 9e bf 34 21 c9 e7 d7 f1 92 3f
       -0.030247443893492158 0.018500684282373572
000020 4a 78 93 90 f6 95 92 3f 65 80 5e 7e e1 6f 81 3f
       0.01815018899366575 0.008514177006702714
000030 86 a0 18 d5 3c f9 87 3f 4b df ff 3f 5a 88 79 bf
       0.011705851796321786 -0.006233551539473424
000040 a8 d6 7a 64 f8 2d 95 3f 5b 5f ba 40 c8 77 93 3f
       0.020683175213625532 0.01901162047451464
000050 87 04 b9 23 15 40 81 3f 51 43 65 38 74 cc 63 3f
       0.008423009064360677 0.002416827194942441
000060 bf ff 9a ca 4f 65 90 3f cc bb 01 17 fc 98 a2 3f
       0.016011473408752638 0.03632343083233244
000070 e7 13 10 87 d9 07 9d bf 51 62 0e 08 da 48 ab bf
       -0.02835025679452832 -0.0532901892503942
000080 ec 73 7f 0b 93 4c 87 bf 42 a2 9e d3 80 00 8a 3f
       -0.011376522816073341 0.01269627233325921
000090 f6 f3 55 c0 4c 01 99 bf 18 79 5a 39 ba 00 8e 3f
       -0.024419020880930696 0.014649824977194956
0000a0 99 0a 4d 3b ff 3a 7c bf b2 4a 66 64 31 2e 96 bf
       -0.006892201422319965 -0.021660587075141798
0000b0 04 13 86 60 fa ab 87 bf 90 5f 61 98 85 c3 99 bf
       -0.011558490820570373 -0.02515991919094024
0000c0 f9 6f ad 87 50 88 a8 bf 79 f7 8a 67 c9 f4 9f 3f
       -0.04791499763697966 0.031207224793198905
0000d0 0a 67 4b 8a 1f db 96 bf 86 97 c6 6a f5 9c a2 3f
       -0.022320263686970633 0.036353749546193234
0000e0 2a aa 86 00 c9 86 97 3f 4f 2b 08 48 1e 53 81 3f
       0.022975102097612922 0.008459316800345866
0000f0 35 78 c3 d4 4f 59 68 bf 04 fb b3 05 6d 14 85 bf
       -0.0029722747041054606 -0.010292865501921884
000100 70 76 1f 97 88 3d 7e bf 64 08 5d b9 35 ac 38 3f
       -0.007382901721909016 0.0003764754450125195
000110 04 29 0b 2c ab d5 6f bf 87 b6 ae 5a ff af 9f 3f
       -0.0038860648349771116 0.030944814596003425
000120 2d f1 4f 2a 13 b1 97 3f 0c a3 35 53 af e4 7f bf
       0.023136424500976794 -0.007786450255800725
000130 7e ae 83 5d f6 10 91 bf d8 2c ee 2b 06 97 74 3f
       -0.016666268785157083 0.00502684031279018
000140 2c b3 1a d1 73 96 82 3f 39 08 41 90 b0 26 98 bf
       0.009076027697426513 -0.02358508949715363
000150 db aa 25 a1 24 b0 8f 3f da 64 45 3c 34 65 8d 3f
       0.01547268502027548 0.014353187646224109
000160 f7 aa f9 68 bf 9f 92 3f 32 ed e9 13 ec 6e 9d bf
       0.018187514097387027 -0.028743447032394794
000170 ae 64 84 02 5d 4c 99 3f 73 92 22 1e ac f7 ac bf
       0.024705365446696596 -0.056577089956850644
000180 ac 07 9f 40 e8 70 98 bf 58 2f 99 b8 7e 93 ab 3f
       -0.0238682069245965 0.05385967257879426
000190 64 a5 50 0c 6e dc a7 3f 23 96 08 af d1 65 8a 3f
       0.04660362148599509 0.012889516977405318
0001a0 4b 88 49 ce 5a 5c 80 bf fc b7 43 48 c8 54 92 3f
       -0.007988652630221213 0.017901544008900303
0001b0 73 50 5f 0e 38 76 70 3f 85 55 d4 63 db c9 97 bf
       0.004018992394737453 -0.023230960815529684
0001c0 31 07 e3 74 27 41 9e 3f e5 0a 55 1a ea 12 23 bf
       0.029545418271261063 -0.00014552219105653307
0001d0 11 c9 05 c6 fa f2 89 3f 99 e7 d3 08 f7 8a 7b 3f
       0.012670478027506012 0.006724324205828491
0001e0 41 94 12 2c 17 55 a6 bf e0 6d 6e 9b 74 82 67 3f
       -0.04361793911929413 0.002869823215815734
0001f0 5f c2 57 71 a2 3b 88 3f 9f eb 8c ef ec 6a 77 3f
       0.011832493862102554 0.005717206506967636
000200 55 e4 9d 7c 5f 2a 95 bf 26 b2 42 4a af 7b 82 bf
       -0.020669452649120085 -0.009024972394706298
000210 22 a6 17 0c 34 e0 61 bf 67 f4 55 83 93 a6 83 3f
       -0.002182103781468895 0.00959506268076833
000220 64 33 37 43 ed c5 9a 3f 26 6e c5 88 7d 52 b4 3f
       0.026145655848995544 0.07938370312825124
000230 2b 82 b2 0b 64 64 9f 3f f5 a0 68 34 99 7c 6f 3f
       0.03065639802355428 0.0038435928611485434
000240 2b 9c 29 9a c7 4a a5 bf e9 9d 3f 5f 08 07 8e bf
       -0.041586148804349264 -0.014661851317170753
000250 df 29 d9 7c 25 13 72 bf 2a 63 52 60 de ea 88 3f
       -0.004412790714534569 0.012166726412304724
000260 fe 1c 43 b4 18 9d 89 bf 8f 67 cc 82 da 76 70 bf
       -0.012506669045605264 -0.004019597585989034
000270 99 a1 7a 4b 47 e3 ad 3f ac dd fd ac 77 05 89 3f
       0.058374622310398645 0.012217459646975147
000280 41 60 03 45 70 08 a3 bf c5 eb 8e 28 83 d0 65 bf
       -0.03717375605054985 -0.0026629029930211622
000290 2e e7 8b 59 9b 1b 98 bf de b3 9b 9f 96 78 a3 3f
       -0.023542811718449012 0.03802939127294967
0002a0 17 69 23 68 8d 9c 6a bf 35 76 0c 7f 10 03 95 bf
       -0.003248478112351748 -0.020519502405582386
0002b0 ff 1d 29 17 7b 01 9a 3f eb f4 93 5c cf e5 88 bf
       0.025396273888217632 -0.012157077801470758
0002c0 c8 97 52 5b 05 07 7e bf b6 84 15 25 05 61 75 3f
       -0.007330914425585484 0.0052194786997869416
0002d0 c0 36 f1 4c 5f 5c 83 bf 52 10 fa ea b1 5e a2 3f
       -0.009453529868689414 0.03587871545190126
0002e0 0c 49 75 d4 b2 5a 74 bf 7e 1f f9 ef 81 b4 26 3f
       -0.004969309381822617 0.00017322622442094907
0002f0 7d ec 1f 81 b0 89 8d 3f 2e dd 9f 70 13 f4 9f bf
       0.014422778072903814 -0.031204513310482067
000300 a2 b3 26 a8 de 37 99 3f 5f 33 75 10 1d 5e 82 bf
       0.02462718869508119 -0.008968569817307146
000310 54 60 67 52 56 56 8b bf 29 b1 85 60 59 d3 9a 3f
       -0.01334826888061983 0.026196857944726624
000320 08 ff 6e 87 5c 37 88 bf 9a 6f 06 48 8d 64 71 bf
       -0.011824343569855525 -0.004246284370676446
000330 ce 99 22 92 07 e7 74 bf a3 3d 15 79 4a c1 ab bf
       -0.005103139470668384 -0.054209067612301064
000340 f4 0d bc 29 6e 18 97 3f 0c 1c 85 f2 dc 35 92 3f
       0.022554131791379065 0.017783596327060322
000350 d2 e3 16 e4 20 1f 91 3f 6a a1 c5 c4 1b 5e 83 3f
       0.016720308228943832 0.00945684141397925
000360 a3 dd fb 74 a8 33 a5 3f af 67 c7 ab 97 23 7b 3f
       0.041409744529967506 0.006625740494621653
000370 43 ac 01 84 62 97 60 3f 76 72 91 07 ed 13 a6 bf
       0.002025310910587248 -0.043120772527548576
000380 1c 89 33 d0 e5 e8 8f bf c8 61 53 d9 68 16 9a 3f
       -0.015580935875224848 0.02547611071062919
000390 52 05 34 ee 46 fb 97 3f 47 7c 68 6e d7 94 90 3f
       0.023419483460206898 0.01619278537156912
0003a0 8f 0b 9a 93 14 a0 97 3f 73 d4 27 9a ab fa ac 3f
       0.023071595677275843 0.05659996277601289
0003b0 1c 87 f3 fb a4 b0 8d 3f ff 1a 40 08 08 54 59 3f
       0.014497078837340242 0.001545913547489952
0003c0 af 80 d4 41 8c 6f 9d 3f c7 d4 89 69 98 55 44 3f
       0.028745833890866986 0.0006205553246007239
0003d0 f2 c8 c8 e8 29 e2 89 3f 7e 18 4f b6 19 4f 83 3f
       0.01263840428973537 0.00942821586239639
0003e0 31 5d bb 03 d1 9b a3 bf 58 bd ce fe 64 e2 97 3f
       -0.03829816027217204 0.023324564029903655
0003f0 a2 07 a8 39 cb 26 84 bf ee 6e 5e 25 a9 1e 98 bf
       -0.009839618393929165 -0.023554461389365615
000400 45 bc 48 d5 12 bc a4 bf fd ec b2 e8 20 af 87 bf
       -0.04049738744321777 -0.011564499951751456
000410 42 42 f5 06 da 50 95 3f 2f d9 0e a0 e2 9d 95 bf
       0.020816237139401624 -0.02111009694973481
000420 4b 42 47 f4 9e 83 65 3f 26 aa 51 d5 3a 70 91 3f
       0.002626238305517147 0.017029685277899408
000430 d0 5b 23 a5 60 27 9b bf b8 49 9b 14 95 9a a6 bf
       -0.02651740081713766 -0.04414811970277149
000440 16 09 70 c5 43 a8 70 bf cd d8 ca 24 f4 93 91 3f
       -0.004066719752702027 0.017165961022976007
000450 1c 63 97 97 45 b2 8f bf b6 5c c0 e0 4c 86 98 bf
       -0.015476745308590938 -0.023949815004098617
000460 86 80 88 9c b5 cc 84 3f 91 21 64 13 a8 ca 6e bf
       0.01015607723189783 -0.0037587435464311943
000470 4f 05 3f 80 aa 36 53 3f 74 00 9f 60 5b 95 91 bf
       0.0011727013634160348 -0.01717131402233503
000480 b5 33 65 c2 43 86 a0 3f a9 63 a7 da b3 a0 9c bf
       0.03227435825338124 -0.027956781597683698
000490 d5 97 54 36 f8 54 50 bf 43 70 30 d7 59 18 89 3f
       -0.0009968208262960316 0.012253476981690997
0004a0 6a a6 9e b2 07 93 94 3f 13 14 e9 0a 1c 5c 97 bf
       0.02009212520321172 -0.022812307516023433
0004b0 3a 13 5a 30 4a 65 53 3f c6 41 74 4d b2 07 95 bf
       0.0011838173390128063 -0.020537172295975535
0004c0 44 c2 bc 24 da 8b a3 bf 73 1b f0 17 a1 87 86 3f
       -0.03817636202291344 0.011000879805590924
0004d0 fd ce ce 29 a5 e2 84 bf 4b 16 07 8d ce 2c 86 3f
       -0.010197916353582576 0.010827649763892519
0004e0 de 01 25 b0 8b ae 93 bf 1b ff e3 03 f9 5b a9 3f
       -0.0192205263385875 0.04952982113354506
0004f0 11 af 6b b7 f1 59 b3 bf 4a 66 f8 17 5c 7a 86 bf
       -0.07559118965189905 -0.010975570184245904
000500 5e 55 07 aa d1 91 98 bf e6 a7 b3 76 a9 a8 9b bf
       -0.02399375534317493 -0.02701058184621976
000510 9b a8 75 97 22 d6 99 bf 22 12 bd 85 bd a1 a1 bf
       -0.02523092317043361 -0.03443710572767979
000520 d5 6f 7f 0a 90 51 97 3f 7a 47 c7 69 ed 6c a4 bf
       0.022772074356779932 -0.039893550074011366
000530 19 b1 ec fb 78 47 9d 3f f1 c1 75 ef bd 18 8e bf
       0.028592958809143008 -0.014695628996123285
000540 74 e5 68 d9 bc 0d 76 bf a2 d0 a6 ec b9 52 99 bf
       -0.005384195034417661 -0.02472963816553942
000550 a3 a8 08 cd ea be a8 bf d2 e3 3d 4d b5 6c 67 bf
       -0.04833158257345473 -0.002859453301365702
000560 43 e0 41 33 d1 f4 8c 3f 1e 3e e1 30 18 35 92 3f
       0.014138826729535597 0.01778066442812875
000570 69 56 1b 36 43 c2 93 bf c2 bd 75 8b 75 93 97 bf
       -0.019295740296760764 -0.02302344955154268
000580 ba f1 c1 7a f9 67 a3 bf af 47 11 a4 08 e7 a2 3f
       -0.03790263770585818 0.03691889765526867
000590 89 89 cc db 44 ca 95 3f cc e4 e0 5a a3 9c 86 3f
       0.021279407420601557 0.011040950976268248
0005a0 84 c8 cb 7f 1f 89 a8 bf 62 37 d0 45 d0 d9 89 3f
       -0.04792116580019104 0.012622477655920231
0005b0 c1 45 78 65 2e bc 91 3f e0 25 41 97 ba 2c a6 3f
       0.017319416945672964 0.043310004199678565
0005c0 80 b6 60 28 22 16 a6 bf 89 74 c2 b9 a2 26 34 3f
       -0.043137614659241486 0.0003074786452631003
0005d0 aa e6 c3 fb 75 6b 6e 3f 5f 27 f2 eb da c4 98 3f
       0.0037133507122433978 0.02418844285106247
0005e0 04 80 07 59 83 93 ac 3f 6f a0 28 86 35 1d 94 3f
       0.055812935464700814 0.019642673791310402
0005f0 04 7d a8 04 d5 a5 86 3f 3e f9 7f c3 3d 5b 9a 3f
       0.011058487133651436 0.025738682801596406
000600 81 a2 da 96 40 55 97 bf 74 44 0e d0 ab a8 a1 bf
       -0.022786149222755462 -0.034489983699253296
000610 5f 1b 18 fe 66 72 9b bf 3b ac bb d3 91 07 80 3f
       -0.026803597696950173 0.007826937936860392
000620 a1 bc 71 b4 9b 82 76 bf b6 4e 0c 36 7c 74 a6 bf
       -0.0054956514569390056 -0.04385746154562524
000630 ce 21 34 91 d5 aa a9 3f 47 42 ac 26 ac 48 89 bf
       0.050131486868909655 -0.012345642976954297
000640 ed 04 06 9d 15 8c ae 3f d8 40 83 f8 c9 96 b4 3f
       0.0596625093630879 0.08042585675434866
000650 72 92 92 dc 03 9e 82 3f d3 28 5c bc b4 f1 53 3f
       0.00909045235523218 0.001217295169626588
000660 89 0d c8 42 66 3e 71 bf 1b d9 bc 65 ef 84 a4 bf
       -0.004209899384025725 -0.04007671467700132
000670 43 95 45 10 df b8 6f bf fc 75 6c e4 58 67 2a bf
       -0.0038723332128706447 -0.0002014442454418146
000680 91 a2 34 d1 04 2c 6d bf 59 78 6b 1e 20 a3 78 3f
       -0.003561028870212653 0.006014943565530195
000690 ad 63 aa 15 fe 8a 40 3f 3c e9 e5 20 97 22 80 bf
       0.0005048504493344507 -0.007878475848646198
0006a0 3e a7 65 57 9c 5b 9e bf 54 58 95 b9 65 ae a1 3f
       -0.029646342119497897 0.03453367128774745
0006b0 a1 28 62 26 16 43 8e bf 8e 1a 3b 33 99 1c a7 3f
       -0.01477639488827648 0.045140063766258995
0006c0 73 bc 6f fa 02 94 95 bf bb 5c fb f5 c1 91 91 bf
       -0.02107243207495597 -0.017157583845656115
0006d0 80 a6 ac 0c e3 93 91 3f fb c1 49 03 03 c1 91 3f
       0.017165706299385963 0.017337843967142757
0006e0 89 e8 99 ea c9 91 a1 bf 73 73 ba e2 40 f2 77 bf
       -0.034315404785005894 -0.0058462652774807665
0006f0 3b c2 09 dc 90 f1 97 bf 5e 8d 7a 7d 8e 37 92 3f
       -0.023382438116131814 0.017790056618321663
000700 13 ea 72 3e f8 e1 8e bf 3d ee 8a 9d f6 e3 a0 3f
       -0.015079440503872587 0.03298922227028498
000710 f5 57 d1 f6 65 d7 6b bf c1 b6 74 43 d4 66 8c bf
       -0.0033986083495092198 -0.013868006046858896
000720 cc ae 14 25 ff 4d 83 bf e3 f7 74 50 b7 42 81 3f
       -0.009426110571971867 0.008428032057619056
000730 26 3a 86 a8 62 4a 81 bf 94 ef 6e 12 df bc 85 3f
       -0.00844266011043 0.010614149808922758
000740 b0 b8 bc 7f c0 3c a2 bf 94 a4 d3 ce 7a 7f ac 3f
       -0.03561975058833988 0.055660093066600386
000750 6b 21 2c f3 65 f8 84 3f c1 d7 60 68 bc a3 94 3f
       0.010239407046825652 0.020155853148217554
000760 2a 5f 2c a4 8f d6 ad 3f f9 5e 51 8d 04 44 50 bf
       0.05827759627407965 -0.0009927792027805678
000770 5b c1 db 36 84 3f 63 3f 79 20 a9 f4 75 35 9b 3f
       0.0023496229467740277 0.02657112413206206
000780 ca 49 d4 63 be 7a 95 3f ab 00 86 42 b1 6c 89 bf
       0.02097604259786027 -0.012414345591196549
000790 b3 c4 a8 47 61 af 7a bf 0f 2f 09 91 26 c7 92 3f
       -0.006514911651309396 0.018337824442183733
0007a0 95 f7 50 7b 46 b6 7e bf 14 9c d3 fb bf 4c 5b 3f
       -0.007498050040394851 0.0016662478295133053
0007b0 3d 4b 9e 48 5d 54 9f 3f ae 1c e1 c4 e2 53 73 bf
       0.03059526210524698 -0.004718671623840693
0007c0 f6 36 df 88 8f 84 6a bf 61 f8 ae 77 e4 fa 82 bf
       -0.003237037984013531 -0.00926760187382686
0007d0 d3 31 28 67 93 50 55 3f 6f 8b 49 b9 bc a6 90 3f
       0.0013009490472796106 0.016261051949537583
0007e0 ad 9f 89 87 96 93 a1 3f ea 64 b3 c9 45 f2 99 bf
       0.03432913212310438 -0.025338259158932987
0007f0 58 44 20 f1 df 77 65 3f 34 f4 d4 20 c8 9f 84 3f
       0.0026206373086173178 0.010070384504269204
