cnnfcnweightl1.npy (npy, 270480 bytes, 1 tensors)

array f8 [3380, 10]
-0.0024049500297864766 0.010459829020563319 0.002256952303983281 -0.03717035158355782 0.0023430963084049793 -0.014290226079124642 0.012571648452020329 -0.03811951561861974
-0.026413352875636998 0.0198516707251792 -0.007293440550617039 -0.009626664435744385 -0.016786770616139198 -0.004522779182426878 0.000502604535288488 -0.016226081807115777
-0.012913898539055491 -0.015151434368531124 0.016710475373380235 -0.013969498320319905 -0.005786861497343501 0.003279784236584854 0.0167381928689107 0.04850251167781546
0.03439893031682225 -0.04643639125245601 -0.010021892006046897 0.023753519280546913 0.029742403891603972 -0.02500084386053892 0.03581164628426031 -0.015374977569628351
-0.018277379674985567 0.02171445603418473 -0.006028999309110498 -0.0446919552048863 -0.02877906891441756 -0.017386656262235838 0.0021651719772793694 -0.012782933332601198
0.008064996837141254 0.0028149920195937993 -0.01104303917994269 0.0012551407151838777 0.006431772958344487 -0.0036256916331402363 -0.017675061152913337 0.03578653548484903
-0.05175642265498568 0.0239703023856723 -0.026807937087378123 0.008151632524607143 -0.0489576606638286 0.028858456922532565 -0.0018622706124150463 0.029922533248040513
0.0036223392568114376 -0.0191569402246767 -0.02570765373661153 0.01660208403065919 0.02915809629231805 -0.0332051356629443 0.0007475017873947912 -0.017775257223196166
0.00583961075331626 -0.041218548387996344 -0.006057858523990933 -0.05615643402906044 -0.05201711998441367 0.00374953712262464 -0.00899479394365493 0.006256292987540396
-0.035701019442577024 -0.003936871370190492 0.0031150496014052675 -0.012952727413722762 -0.020655302821782597 -0.001642029897174066 -0.021738034253682263 0.017905640624868602
-0.004856087640752871 0.03640485999626205 -0.022889326391917417 -0.020339194703114155 0.05849664503338937 0.0011924819341579446 -0.002168102644474227 0.01557288009051243
-0.005065957464247223 -0.0218044359582188 -0.0007206229531149452 0.020529019030499918 0.04904498022574303 -0.002232652519927217 -0.014625948134576293 -0.00857855278180866
0.01587798360155345 0.06284649827693291 -0.0043425964702589175 0.02329461049817901 0.028082646022792913 0.027457574026862514 -0.008308052554391068 0.0193103762279045
-0.009755734267360079 -0.0398088395864432 -0.04886641221730829 -0.01594094317918489 -0.0021788209943543325 -0.010461232224509896 0.0206256392149686 -0.008341614572558923
-0.023393968430948427 -0.02579997170732988 -0.0028514336862515022 -0.007966821485844917 0.009735809212650968 0.014860905038957576 0.001994621160006504 0.020451177663762993
0.015646810069415734 0.0037630491578709902 -0.015994009061813974 0.015712259387400715 0.012754675608188949 0.00335882442803542 0.009342113619466005 -0.006529472311656954
0.0028057869905022286 0.018292383039950535 0.014664882431491916 0.04285969552447397 -0.014016642480334381 0.005584375235903022 -0.022781393579021165 0.0019620944477561717
0.04558187648553194 -0.009235596719979528 -0.004117031742360566 -0.0195525423522278 0.012532204610459625 0.024225068551794435 -0.014472618142989047 0.052209161944306554
-0.007094718551199617 0.033925220897000834 -0.0160311086519416 -0.010526836810243523 0.0037050051245613573 0.032334375801231365 0.0018057096992255225 -0.021952186936284528
0.02345013625901938 -0.022064675306859623 -0.013081758381423605 0.028751969489165738 0.007484575023411916 0.013342666277441231 -0.005381290968954597 0.013919765442480322
0.0007991426641372317 -0.01304584775713831 -0.0009108635892917163 0.00552561725300552 -0.018056819766553475 0.04225795555920583 -0.046186986844510954 -0.0330545718713479
-0.03113599563350756 0.011864231399058964 0.020852961996594446 0.00017726047674436438 0.034687433508518974 0.012252996411062657 -0.002117632149147971 0.0056415164776822
0.012626223604755514 -0.005870630010657119 0.006958808889339411 -0.029050436965436542 0.047764877533677294 -0.0035814707764296205 -0.009285771020797683 0.01109748408853127
0.027626323760670743 -0.02750664159115038 -0.018451784968140133 -0.004168467268887496 -0.041407924905376814 -0.026394264078752568 0.013745321762757369 0.0488855775503461
0.004851436092205256 -0.0614071094038966 -0.028060951497328734 -0.01961513869457104 -0.01390165668246029 0.0491129096362986 -0.009362650030567922 -0.027203098303156644
0.011580193590249843 -0.011971020689513218 0.006828926490241554 0.00500442399684437 0.02579656125004894 -0.007757987829915947 -0.012493258470208098 0.0021973598620445883
0.012394247718153329 -0.03150725150155939 -0.008717250926381911 -0.008105022655342076 -0.031214643246441826 0.016895596832134523 -0.037816607662404106 -0.027141815460534482
0.0009804876631547884 -0.012008632588639783 -0.013128198311925205 -0.01385272334264374 -0.03221225135358436 0.014570540546328593 0.012068295562247077 -0.020814762423482118
0.008817975531647043 -0.059478083868972347 0.004972633839290779 0.009332243170649257 0.01454350272958912 0.030412425570345934 -0.0004879829179884334 -0.018675614096484234
0.009742093178723458 0.008454552241257638 0.020876311576577298 -0.0211551906872742 0.0363762862814226 -0.0008451856172252599 0.005801016288383537 -0.020549187592234563
-0.026558319135498814 0.005702127974249703 -0.03772965448826881 0.03229534369251824 0.008204636206631555 0.00719292810786678 -0.013179044207305465 0.028090381444130463
-0.036013957209011314 0.008027615611386476 0.01920692213715846 0.00813345500298743 0.01289355551810761 0.03676612113023022 -0.01468225051712997 0.0027281881759724435
00000000: 140e 3fb7 8bb3 63bf 0844 857c f66b 853f
00000010: 2c18 b20a 2c7d 623f aa49 dd08 fe07 a3bf
00000020: b3e3 8240 d431 633f f15c 4cad 3144 8dbf
00000030: d077 aa17 2abf 893f f5b8 d7b1 6684 a3bf
00000040: 0d41 1d1b 1a0c 9bbf b575 2412 ff53 943f
00000050: c357 3e0a badf 7dbf 9c63 5e07 25b7 83bf
00000060: 9f03 351b 8d30 91bf b910 cf4a 7a86 72bf
00000070: a67f 5c05 2778 403f 73ac d0ea 919d 90bf
00000080: 5ae3 1c1f 9a72 8abf a67a cd18 b707 8fbf
00000090: c5c8 ea04 8d1c 913f bf1c 6b53 0a9c 8cbf
000000a0: dd88 0ace f6b3 77bf 5a16 17c1 34de 6a3f
000000b0: 6e4c dd1b d123 913f db32 dc3a 52d5 a83f
000000c0: 0bce 7491 bc9c a13f ee0f 8cbb 82c6 a7bf
000000d0: 14b6 4793 5b86 84bf 3e40 e6b1 d752 983f
000000e0: 9c50 13f0 ca74 9e3f c27f 033b d299 99bf
000000f0: d8b0 3673 e755 a23f fdcf b48e ea7c 8fbf
00000100: 85b1 d72f 4eb7 92bf d8aa 117a 503c 963f
00000110: 0487 c32d ddb1 78bf 1ba2 ff2b dde1 a6bf
00000120: 30e0 2f9f 4278 9dbf 0ee4 21c0 cecd 91bf
00000130: d1e8 a4da b1bc 613f 533e e244 f02d 8abf
00000140: ca4e 438d 6184 803f 1c7b 3455 770f 673f
00000150: d8a9 02a1 bb9d 86bf 99be b514 7190 543f
00000160: dda3 2ee8 3358 7a3f 63c5 ab5f a0b3 6dbf
00000170: cf1e 6d46 6919 92bf e4d1 16df 9c52 a23f
00000180: ed7d 525d d17f aabf f869 49c3 ab8b 983f
00000190: f409 4134 8a73 9bbf f94c d198 cdb1 803f
000001a0: b62e e17e fa10 a9bf 4bfd c742 128d 9d3f
000001b0: b69d 1ad8 ed82 5ebf 22f0 da36 03a4 9e3f
000001c0: 05a3 9394 98ac 6d3f 3791 067f e09d 93bf
000001d0: 5bf9 3870 1b53 9abf 9918 d4ff 2200 913f
000001e0: 27dd f4b7 9edb 9d3f d792 7677 4300 a1bf
000001f0: b10f 83dd 7f7e 483f 3e74 ce51 ad33 92bf
00000200: da4f 4f93 46eb 773f a34c a1fa 981a a5bf
00000210: c0cc e803 20d0 78bf 8ec6 3a3f 89c0 acbf
00000220: 7990 54ea fca1 aabf 5750 236a 59b7 6e3f
00000230: 5efb 93ce dc6b 82bf 932f 69dc 32a0 793f
00000240: 1724 e16d 6747 a2bf 7953 89dc 1b20 70bf
00000250: c002 3b85 bb84 693f b868 16a5 f586 8abf
00000260: 3723 6fe8 a926 95bf 5a51 462d 2ce7 5abf
00000270: a1aa cbc8 7e42 96bf 1049 9733 db55 923f
00000280: 1a1d a819 fae3 73bf 1be5 3266 a8a3 a23f
00000290: 3c7e 1fb1 4c70 97bf 38b2 4e40 ccd3 94bf
000002a0: 9131 b0b2 45f3 ad3f 123f 21ba a189 533f
000002b0: 3bf6 793e d7c2 61bf 99d6 8b95 ace4 8f3f
000002c0: 9422 1c9a 0ac0 74bf 82a2 64ed e653 96bf
000002d0: c098 1802 069d 47bf 507a 6b25 8f05 953f
000002e0: 357f 3474 6c1c a93f 0730 ce31 364a 62bf
000002f0: ffb8 4987 35f4 8dbf ceb5 28dd a191 81bf
00000300: be2d 2e71 5142 903f f97d c446 b516 b03f
00000310: 7e9e 1cdd 8ac9 71bf f50a 0dd9 8ada 973f
00000320: ed1c 0379 b2c1 9c3f f538 e499 d61d 9c3f
00000330: 0ed1 1df0 cf03 81bf b33d 7d69 19c6 933f
00000340: 37a4 037d d0fa 83bf ae20 3b00 d361 a4bf
00000350: 5540 b1b4 0405 a9bf d5eb 7c96 d252 90bf
00000360: 5f52 449d 51d9 61bf 7fb5 3dd2 b26c 85bf
00000370: b8ae 8c37 e31e 953f 55a2 478e 6815 81bf
00000380: 1f9c 56a5 96f4 97bf 0c01 e2ca 4e6b 9abf
00000390: e4b3 bbcd e35b 67bf 37d1 e0ad e850 80bf
000003a0: 92f2 5831 5ef0 833f d5de 0ce9 646f 8e3f
000003b0: 32ed cd14 0657 603f b514 ec4c 27f1 943f
000003c0: 68b3 23a6 b705 903f 4d19 1fa2 afd3 6e3f
000003d0: 70e0 68c7 bb60 90bf 9c51 dce0 df16 903f
000003e0: a7b7 dd94 1f1f 8a3f 790e 4922 f783 6b3f
000003f0: f8db c443 f521 833f 3b88 9ee0 a5be 7abf
00000400: a5d5 a36b 29fc 663f e7a1 b00b 3dbb 923f
00000410: 9025 8b33 9f08 8e3f 3c32 30bd b4f1 a53f
00000420: b10d 6ce8 c1b4 8cbf e0d5 1b50 a4df 763f
00000430: 154d 8471 0154 97bf d448 836f cf12 603f
00000440: 3462 97f9 8156 a73f fd89 f8ce 1cea 82bf
00000450: 8d5f 0a4b 05dd 70bf be6d d3e7 9405 94bf
00000460: 64f2 9607 7caa 893f 8979 b1d4 74ce 983f
00000470: 7aa0 e4ec d1a3 8dbf 1c69 34c6 28bb aa3f
00000480: 2479 6d02 5a0f 7dbf 573e 8684 a55e a13f
00000490: 08cd 837d 756a 90bf 6081 a41e 188f 85bf
000004a0: 9d98 ed7a f559 6e3f 65aa 349d 218e a03f
000004b0: 6aed ab06 b295 5d3f 9e3a de53 a27a 96bf
000004c0: c2e4 4601 5003 983f fff9 5b4b 1f98 96bf
000004d0: 1b0d 61e3 9bca 8abf ac31 9b02 2871 9d3f
000004e0: 6d40 334f 25a8 7e3f 9ba6 6c5a 6653 8b3f
000004f0: 23fc 8c4b b10a 76bf 8b5f bf4a f781 8c3f
00000500: 6b42 bccd b12f 4a3f 285a b90b c8b7 8abf
00000510: 353c dfa9 e0d8 4dbf a51b 4596 07a2 763f
00000520: 9cec 77a9 7c7d 92bf cbc6 3eb2 d5a2 a53f
00000530: 31f4 fe1b d2a5 a7bf b668 5762 87ec a0bf
00000540: 82b2 e54b 1de2 9fbf a51f cf2e 464c 883f
00000550: 774e 3397 7a5a 953f f3ad a6e6 df3b 273f
00000560: 9da5 0021 8dc2 a13f e77c e856 1918 893f
00000570: 2be5 6a1a ff58 61bf 1206 580c 8f1b 773f
00000580: bfa0 a20b c7db 893f 7469 713e cd0b 78bf
00000590: 77cb 9409 d780 7c3f 86e2 cdd2 65bf 9dbf
000005a0: 4e26 cf55 a374 a83f 852d 677b e356 6dbf
000005b0: 19dc d116 6b04 83bf b831 d319 47ba 863f
000005c0: 5c3f 3e34 134a 9c3f a925 3a78 b32a 9cbf
000005d0: 1bc5 f653 06e5 92bf d653 8269 f412 71bf
000005e0: 1013 8766 6b33 a5bf 22b7 1414 1907 9bbf
000005f0: d464 8ddb 8126 8c3f 464d a6c9 8707 a93f
00000600: 5eab ac75 19df 733f 0065 43ad c070 afbf
00000610: d015 e793 02bc 9cbf af7a ccac fd15 94bf
00000620: 5db8 7dc6 7878 8cbf 670b 66c9 5325 a93f
00000630: 0741 7b9d b92c 83bf cf6a 3f06 21db 9bbf
00000640: b303 0346 5bb7 873f 1dbc e332 4384 88bf
00000650: 5ff8 13ff a5f8 7b3f 46a0 6dd6 847f 743f
00000660: 2542 aceb 696a 9a3f 4d32 3200 d7c6 7fbf
00000670: 3e70 66c4 1096 89bf c93d d797 3200 623f
00000680: 7a2a ddc4 2762 893f 6c74 92ed b721 a0bf
00000690: 5862 1e9d 59da 81bf 007e e7b9 5d99 80bf
000006a0: 985e 993f bbf6 9fbf cb96 5c4f 144d 913f
000006b0: 6cb6 4fca b25c a3bf 773b 0767 10cb 9bbf
000006c0: 18e5 a19c 7610 503f a931 e761 fb97 88bf
000006d0: 2ab0 3df3 f4e2 8abf 76ce bc0d d15e 8cbf
000006e0: e937 30cc 1f7e a0bf 145c 0dd9 28d7 8d3f
000006f0: 7906 1136 43b7 883f de0d 880f 7750 95bf
00000700: e3eb 33a4 280f 823f df8a 1752 e973 aebf
00000710: df8f 6f3b 2f5e 743f 6de5 ba79 c81c 833f
00000720: ad33 bee4 fbc8 8d3f b9de dd54 6f24 9f3f
00000730: 04fe 7bac fefa 3fbf 65c4 1b3f b31f 93bf
00000740: cf11 c79c a9f3 833f 2538 07cb 9e50 813f
00000750: f915 ee8d 9960 953f f8e7 91d0 b4a9 95bf
00000760: 2a77 db9f e99f a23f aa54 e24a eeb1 4bbf
00000770: 46ee df73 cec2 773f 800c aca2 d80a 95bf
00000780: cbaa 7ea0 1a32 9bbf d811 ac52 1d5b 773f
00000790: 1fa5 3b20 4d51 a3bf 68e4 f1e9 0389 a03f
000007a0: 2de8 76a1 97cd 803f 99b3 c5ef 5476 7d3f
000007b0: 1840 e75e 9dfd 8abf 43f0 8996 b9c3 9c3f
000007c0: 0b12 d3e0 6b70 a2bf db48 2054 c870 803f
000007d0: 3e60 beb9 faaa 933f 7138 eed9 45a8 803f
000007e0: 1e47 3cba ef67 8a3f 6bd1 b54f 02d3 a23f
000007f0: 6709 6c4e ba11 8ebf 2ec4 c7df 6c59 663f
