cnnweightl1.npy (npy, 1520 bytes, 1 tensors)

array f8 [20, 3, 3]
000000 55 6a ef 5d 1f 55 97 bf 5a 80 f7 4e 24 19 a0 3f
       -0.02278565417132435 0.0314418169398329
000010 fd 7f a2 55 51 9b 9d bf 97 96 a9 e6 42 fb 80 3f
       -0.028912802554827966 0.00829174295831629
000020 20 b2 33 93 30 19 6a bf 1b 21 27 b1 6a 0d 91 bf
       -0.0031858395319572935 -0.01665274339919263
000030 54 82 e4 d2 34 37 7f bf 1e ec 3a e5 42 0e 96 3f
       -0.0076210082463893 0.02153877758130928
000040 ed 42 88 f2 a3 9f 98 bf c5 eb 40 ac d1 89 eb 3f
       -0.024046479871745175 0.8605736126258924
000050 49 3b ba d4 39 fa ea 3f b5 04 a2 56 23 ba eb 3f
       0.8430451540788023 0.8664719287918589
000060 86 f1 db 3c df 74 eb 3f 73 07 56 e1 3d 04 eb 3f
       0.8580166042952875 0.844267788037753
000070 f0 f1 78 06 e3 85 eb 3f 92 44 76 83 34 3e eb 3f
       0.8600936056532742 0.851343399774253
000080 3c d6 98 17 1b c7 eb 3f d0 b4 db 43 87 88 eb 3f
       0.8680549107436444 0.8604160619121561
000090 99 ad 7e 06 a0 ab 99 bf e0 2b 73 69 cc 98 93 3f
       -0.025068760296262125 0.019137567459249882
0000a0 3f 90 d3 fb 17 bf 91 bf 00 07 44 9e 4c 3a 86 bf
       -0.017330527062668685 -0.010853384570967517
0000b0 25 48 83 93 90 dc 84 3f bf 93 d6 65 84 c6 96 bf
       0.010186318876012799 -0.02224165793963428
0000c0 40 68 eb 52 6b 57 60 3f 35 00 40 71 c5 ad a6 3f
       0.0019948097391138397 0.04429451949545219
0000d0 c7 9a a2 84 a3 ce 71 bf e2 2a b5 00 44 39 d6 bf
       -0.004347456686594148 -0.34724521702871247
0000e0 33 ed c8 d5 5b 4f d5 bf 30 ae 7c 5e 42 5d d7 bf
       -0.3329686725371232 -0.36506709315537744
0000f0 c1 ac 38 81 8f bd d4 bf d9 10 e9 73 84 67 d6 bf
       -0.32406985873485544 -0.35006820029617597
000100 01 ec 45 c7 6a 2a d5 bf 47 49 47 0e 66 d9 d6 bf
       -0.33071393451945147 -0.35701896089917223
000110 38 ff 4b 7c d8 b4 d5 bf 1f 0b 79 26 af f4 d4 bf
       -0.3391629422985605 -0.3274343372069541
000120 fc e4 9c 63 7f cf d1 bf 7d b5 9d 97 a0 4d d3 bf
       -0.27828964927500954 -0.3016129952073568
000130 70 ad eb 63 25 ab d2 bf 77 53 cb 19 8c 5d cd bf
       -0.29169592626450136 -0.2294173360775422
000140 cf 29 59 49 5c 1e d3 bf 78 a5 7f cc 76 14 cf bf
       -0.29872805750769954 -0.24281201348575698
000150 07 92 51 fa 31 ac d2 bf 7e d2 5f 13 e6 b1 d2 bf
       -0.2917599625127711 -0.29210807697317154
000160 a3 7b 9f 42 fc 19 d2 bf ce 8c bd 2f ae a9 b3 bf
       -0.28283602243566913 -0.07680786767518841
000170 2b 0b 04 c4 51 e5 b3 bf 98 39 0e 5a d6 22 b4 bf
       -0.07771788631002312 -0.0786565751898024
000180 77 c3 57 25 43 79 ad bf 21 11 b6 2e cb 9d a8 bf
       -0.05756578284115837 -0.0480788702507502
000190 8f b8 45 fb 08 f6 b5 bf 9c d5 78 c8 2c b0 b8 bf
       -0.08578544745043558 -0.0964382161553971
0001a0 f7 cd 75 bb ad 06 b2 bf 32 89 ed 50 ba e1 b3 bf
       -0.07041440798439412 -0.07766308284547987
0001b0 9b 0c ec a5 56 a0 98 bf ca 70 02 5d 6d 51 86 bf
       -0.024049142720298105 -0.010897497559476572
0001c0 88 c1 44 c7 96 d7 60 bf f3 59 44 fd 0f 60 8a bf
       -0.0020559258356557843 -0.01287853709849871
0001d0 0e 90 2f dc 1a 3e 84 3f bd b5 f6 9b 24 b1 87 bf
       0.00988408073857985 -0.011568342218050693
0001e0 d0 8f fa b7 f0 8e 8a bf e5 8d 2d e3 2e fc 5f 3f
       -0.012967949499689185 0.0019522149929905805
0001f0 6f 32 45 6d e3 a4 9e bf 54 55 23 2b ad 38 bc 3f
       -0.02992587427552212 0.11023981383489928
000200 3c 4e 37 f2 33 15 ba 3f 26 63 cb 3e 93 4d bd 3f
       0.10188603080251196 0.11446495326107406
000210 a0 39 13 6b 22 c1 bd 3f 38 85 78 9e 0a c2 bd 3f
       0.11622824777734886 0.1162420880214271
000220 84 10 28 10 50 d4 b7 3f da 05 c2 ab 8a 90 bf 3f
       0.0930833854145608 0.12329928105648183
000230 51 ec c8 06 9b 21 ac 3f a0 27 4c e6 2d 4e ba 3f
       0.054943890169362526 0.1027554213762003
000240 d8 af 2e 72 ac 3c d3 bf 03 3f f6 06 50 6b ce bf
       -0.3005782237112249 -0.2376499208444259
000250 0c 91 4b 31 2e 3c d3 bf 0d 70 25 21 b8 6c cf bf
       -0.3005481225393545 -0.2455053483816986
000260 91 e7 02 eb 4e 63 ca bf 45 a4 71 12 95 c5 ce bf
       -0.20615564799464584 -0.24040473366338425
000270 ab b9 8f 33 2f da d1 bf 9d a0 63 88 7b bd c7 bf
       -0.27894191775603855 -0.185470048519396
000280 33 97 ab 52 3c da d1 bf e1 58 3e a6 31 49 d0 3f
       -0.27894504616994026 0.2544674037429911
000290 f5 0b 7a 18 83 fc cf 3f db ca 0c 87 4d d6 d0 3f
       0.24989355750230371 0.2630800074431769
0002a0 9b 2c 1a 1a 8b bc cf 3f 02 a6 ce a8 57 3a d0 3f
       0.2479413869335517 0.2535609386928571
0002b0 df 00 bb 28 41 70 cf 3f 8d aa 93 7c cb d6 cf 3f
       0.2456132363204295 0.2487425192151317
0002c0 f5 b7 0d 90 7a b0 ce 3f 19 91 61 09 13 78 ce 3f
       0.23976070436350452 0.238039378719926
0002d0 a8 97 a8 00 ac f6 be bf d1 05 79 f5 36 45 c3 bf
       -0.12095141426161027 -0.15054976449941518
0002e0 c1 f0 52 29 d9 f5 c0 bf 50 ff 2b fb 9c 87 c4 bf
       -0.1325026942994381 -0.16038858665705868
0002f0 4f f8 5d 16 29 f5 c1 bf 86 4f eb 9f 2d f2 c3 bf
       -0.14029420463697526 -0.15582819279245202
000300 01 6e 5e d8 d7 6b c1 bf 9f ea a3 97 ee e5 c3 bf
       -0.1361036116112331 -0.15545446781455483
000310 1f 05 ee 61 7b 42 bd bf 80 f4 da 5b b9 30 d6 bf
       -0.11429568425048274 -0.346723880484042
000320 dc 80 b2 8b 5a 8a d4 bf 29 05 e9 83 a8 e7 d4 bf
       -0.32094443933784844 -0.32663929826601873
000330 68 a5 99 3c 99 1c d7 bf 37 bb 40 23 98 34 d2 bf
       -0.36112051885591834 -0.2844601005808047
000340 8a 43 e6 cd 38 a9 d5 bf a3 6e 73 a3 12 8e d6 bf
       -0.3384534846055024 -0.3524214359474433
000350 a2 c7 09 78 bc 31 d5 bf f4 e6 63 40 95 b3 d6 bf
       -0.3311606571434088 -0.35471087730512285
000360 20 40 8f a4 dd 39 ca 3f 12 54 b2 5c 5d d0 c5 3f
       0.20489092383513796 0.17042128587914412
000370 10 01 0b 93 0f e1 c8 3f dc 7a 35 7e ea 91 c3 3f
       0.19436831168969393 0.1528905025724815
000380 db d4 79 c6 96 6e c4 3f 84 8f 57 41 b1 b7 c4 3f
       0.15962490740972765 0.16185584726838098
000390 8c 9f e0 86 01 af ca 3f af 88 44 54 55 09 c3 3f
       0.20846575818836433 0.14872233023294743
0003a0 32 a4 6a f3 57 64 cb 3f c4 7e b4 5a 20 3f da bf
       0.2139997423703633 -0.4101029287139506
0003b0 f6 35 69 d2 f2 e2 d8 bf 06 8c b8 51 62 f3 d9 bf
       -0.38885183856913785 -0.40547998409800845
0003c0 41 c4 f6 4c 71 20 d8 bf 9c 71 70 52 6e 67 d9 bf
       -0.37698013797768587 -0.3969379239149704
0003d0 8d cd 80 00 81 25 d9 bf ca 2d fa f4 5b 60 d9 bf
       -0.39291405724653644 -0.39650629924355185
0003e0 ce dd 64 15 14 d6 d7 bf da 61 53 db ea d5 da bf
       -0.372441311733806 -0.4193064824917464
0003f0 34 c2 de b2 25 b7 d7 3f 2c 07 98 77 51 9f d1 3f
       0.3705534216669861 0.2753490131291183
000400 d4 10 5b 5f 64 83 d9 3f ef 2c 24 ac d4 a2 d7 3f
       0.39864453613359996 0.36931340037035815
000410 70 63 14 b1 14 a8 d2 3f ab 59 f3 16 46 77 d7 3f
       0.2915088395398504 0.36665489426868686
000420 2e b9 0c 8d 21 c7 d8 3f 6b 2f 45 b1 9b 2c d2 3f
       0.3871539952696307 0.28397266685055084
000430 fa 8f 23 48 03 db d7 3f 43 ed 4a 6e 04 e9 ea bf
       0.37274248165908797 -0.8409444955972635
000440 b2 33 1d 14 fe b8 e8 bf 51 f7 c8 52 4d c3 ea bf
       -0.7725820916035586 -0.8363405815978046
000450 94 db fd 31 6f b1 e9 bf af 52 4c 84 cb de e9 bf
       -0.8029094673537309 -0.8084466537425977
000460 35 3e c6 19 78 99 e9 bf c6 19 4c 34 69 d8 e9 bf
       -0.7999840262800207 -0.8076673528128644
000470 83 2c ed 52 d8 90 e9 bf b4 ca 42 32 3b 7e ea bf
       -0.7989312762887412 -0.8279090863855658
000480 f2 04 67 e5 5a 15 d2 3f 5c 91 44 6f ef 0f d4 3f
       0.2825534096010208 0.3134726130104093
000490 93 d6 29 1e 79 2c d3 3f 2d 7f 58 e2 a9 b1 d2 3f
       0.29958942361495494 0.29209372619696944
0004a0 c7 4b 0f 1c e7 7f d6 3f b5 60 05 94 39 6e d3 3f
       0.3515565656682011 0.303602594901814
0004b0 f8 38 02 5d 4e 58 d3 3f 23 95 88 8d 78 b5 d3 3f
       0.3022647770202549 0.3079511053241097
0004c0 a7 70 f7 58 e9 8e d3 3f 01 ea af 4b db 37 c0 bf
       0.3055976265729989 -0.126704608875869
0004d0 19 46 ac 48 ed 41 a9 bf d8 a3 9a a8 a0 a3 c0 bf
       -0.04933110725518137 -0.12999351723308794
0004e0 f2 d4 bb 70 12 3d b7 bf d8 46 5a d6 ee 47 98 3f
       -0.09077563526428259 0.0237119024591895
0004f0 24 4b 77 38 de 42 b4 bf 1e 13 0f f2 19 aa bd bf
       -0.079145325456278 -0.11587679061547049
000500 be 00 ed 14 62 4d a4 bf 8a 7e 49 2e 50 34 be bf
       -0.03965288644258312 -0.11798573617988431
000510 0d 02 de c7 bf 68 b9 bf f8 8d 39 fa e9 e5 b9 bf
       -0.0992545950848653 -0.10116445883755165
000520 b4 8f 70 ca a8 b7 bd bf 98 c3 fd 56 78 14 c0 bf
       -0.11608366911292373 -0.1256246971857109
000530 95 ab 82 44 8e a4 bd bf ce a4 df 3c f2 3e bf bf
       -0.11579217121713577 -0.12205423341915209
000540 ca 17 7d ff 09 e5 c0 bf 88 f8 c9 cb 57 f9 be bf
       -0.13198971724540193 -0.12099217152897002
000550 84 21 b7 0d 72 8e c1 bf 43 c8 6c 51 85 43 e0 3f
       -0.13715959233946873 0.5082422819452933
000560 bc bd 10 4d 51 5a dd 3f 7d cd e8 16 e7 6b df 3f
       0.4586375477401494 0.49096085774655035
000570 a0 92 3b 4b 66 2d df 3f c7 5a 3d c2 3a 09 dd 3f
       0.48714597079223587 0.4536883255836241
000580 73 33 ce 32 3c 58 df 3f 0e 73 16 ed d5 1d e0 3f
       0.4897604461810296 0.5036420469874388
000590 30 b0 c9 7e 1d e4 dd 3f fb a9 4c 93 e4 42 e0 3f
       0.46704804784417586 0.5081656338637112
