cnnweight.npy (npy, 1520 bytes, 1 tensors)

array f8 [20, 3, 3]
000000 7f a0 83 f8 ea ca cb bf 9d f8 2f 59 f3 5e c8 bf
       -0.21713006147843214 -0.19039766173222442
000010 97 78 9e 5d 29 02 cb bf dc 9b d0 6c b7 3f ca bf
       -0.21100346633187847 -0.20506947339273907
000020 4b b7 27 1d 52 f4 cb bf 77 75 f7 36 a8 18 cd bf
       -0.21839357780066346 -0.22731497463147907
000030 87 bd ff 54 26 6d cc bf a6 7f 24 f6 de 67 ca bf
       -0.22208098554936503 -0.20629488962822257
000040 b1 e0 b6 b4 a9 4c cb bf b7 c9 ac 5d e8 72 01 40
       -0.2132770664591184 2.181107265315599
000050 3e d7 16 c0 ee 7c 01 40 39 b4 0c fe 4a 8a 01 40
       2.1860022551508385 2.1925258491160347
000060 6c 03 dd f5 58 0d 02 40 48 92 f8 ca 82 29 02 40
       2.2565173347542693 2.2702689988239264
000070 9b 54 87 f7 4f fd 01 40 48 7d 1c ee c2 a1 01 40
       2.2486876810240353 2.2039850809520978
000080 94 2a 48 df 75 8d 01 40 4a 75 4f 0a 54 a2 01 40
       2.1940724796198285 2.204261856603499
000090 bb cf 4e 40 2b 72 f8 3f 46 39 ae bd 67 6c f8 3f
       1.527873278811042 1.5264661225697451
0000a0 0f 68 21 6c 68 27 f8 3f 3a c2 97 10 52 59 f8 3f
       1.5096210693213867 1.5218067787319698
0000b0 3c 3b 86 6e 5c 1c f8 3f 09 d4 d4 a1 59 75 f8 3f
       1.506924087272366 1.528649933007957
0000c0 9e cf b5 70 dc 54 f8 3f d9 a2 af 17 80 96 f8 3f
       1.5207180407278211 1.5367432523000188
0000d0 8e 6f 61 e8 1e b3 f8 3f 08 e0 d8 99 aa fd e4 3f
       1.5437306477897184 0.6559651379420766
0000e0 cf 4d c5 1d 97 d3 e4 3f 71 89 dc 12 ba 07 e5 3f
       0.6508288938006731 0.6571932190311555
0000f0 c4 53 d7 19 69 63 e4 3f 65 a8 75 55 1e 29 e4 3f
       0.6371350769719517 0.6300193471081569
000100 ea 8f 1f b8 2c fe e3 3f ee e2 f7 ca 0a f6 e4 3f
       0.6247771831663134 0.6550344433045134
000110 88 33 d5 0b 8e 5a e5 3f 23 1f 70 53 7c fa e4 3f
       0.6673040610418051 0.6555768613479568
000120 78 e2 b6 fd 48 3d e6 bf 03 22 6a 93 f8 c6 e5 bf
       -0.6949810939177743 -0.6805384520712895
000130 12 c1 4c 1f a2 50 e6 bf c4 34 db 89 e4 62 e4 bf
       -0.6973429309200887 -0.6370718662743902
000140 55 56 72 0c 5b a6 e4 bf 51 2c a7 8a 4e 83 e5 bf
       -0.6453070872400511 -0.6722786624972149
000150 3e 9d 50 37 fe 7e e5 bf 46 41 01 b5 cb e4 e5 bf
       -0.6717520790452125 -0.6841791663410184
000160 5c 75 dd 0e b5 9e e6 bf 6e 39 f0 6a 30 87 a4 bf
       -0.706873444588989 -0.04009391122245885
000170 36 65 69 4b 22 40 87 bf 14 fa 14 47 72 0e a0 bf
       -0.011352794577009644 -0.03136021726321672
000180 76 4b 3b ba 56 77 aa bf 2e 97 9b cd 60 ce a2 bf
       -0.05169173262915809 -0.03673079023228208
000190 fc 83 83 53 a0 b4 a7 bf 11 c0 5c 8e 6b fe 9b bf
       -0.0462999441094851 -0.02733772331629331
0001a0 cd 21 33 9a 14 83 9d bf ae 51 5b 21 0e 10 a5 bf
       -0.02882034484062661 -0.04113811642824615
0001b0 6d a9 94 c7 a2 9b e9 3f b6 9f 09 39 28 11 e9 3f
       0.8002485178051707 0.7833443750396245
0001c0 72 42 5b 87 34 f1 e8 3f 7c b0 a6 01 f0 fe e8 3f
       0.7794439929658223 0.7811203033684389
0001d0 5b 95 c3 c9 d6 3d e8 3f 96 32 86 fa 39 4d e9 3f
       0.7575487080290871 0.790677060418221
0001e0 3d f3 11 e7 16 c3 e8 3f 09 94 24 ee cb a2 e9 3f
       0.7738146317566145 0.8011226321438026
0001f0 f0 87 ba a1 a0 6c e9 3f 26 f4 63 5a b9 91 f5 3f
       0.7945101889383732 1.3480771571041799
000200 ca d7 8d b1 28 4b f6 3f 09 73 56 17 b7 e1 f5 3f
       1.3933493552881253 1.367606249964583
000210 70 98 57 a0 e8 0d f6 3f 5f 4a 32 ea 3d 56 f6 3f
       1.3783956778875357 1.396055140333054
000220 16 72 4e a3 c9 77 f6 3f 27 90 62 76 cb 9a f5 3f
       1.4042450312764507 1.3502916931547675
000230 bd 2a 1f 25 b6 5f f6 3f 0e c5 48 e9 21 c6 f5 3f
       1.3983670663898657 1.36087218405402
000240 67 50 59 ba 02 66 df 3f 72 28 37 6c 83 b7 e1 3f
       0.4906012363255798 0.5536515344222279
000250 a0 68 b7 a7 d9 76 df 3f b7 24 1a 39 c4 a8 e0 3f
       0.49162904146727193 0.5206013789439997
000260 c4 46 26 35 09 e4 e0 3f d7 b2 ab 38 45 b8 e0 3f
       0.5278364217831144 0.5224939448213161
000270 b7 3e d2 d5 4b a4 de 3f dd d0 ee 60 ef f7 e0 3f
       0.4787778461550078 0.530265511819859
000280 c8 8d a5 02 19 6e df 3f 7e 78 1b 02 83 75 08 c0
       0.491094830116904 -3.0573787846215614
000290 c9 13 08 75 78 27 08 c0 35 a3 f7 1a a4 62 08 c0
       -3.0192727225389473 -3.0481645685980774
0002a0 b6 02 ae bc b5 73 08 c0 43 b3 f0 28 f7 77 08 c0
       -3.056498979626066 -3.0585768888908276
0002b0 f9 84 9c ba cb 98 08 c0 9a 72 75 1f 04 7a 08 c0
       -3.0746073321357668 -3.0595781762807066
0002c0 a0 08 b6 26 43 57 08 c0 b7 a6 dc 9c 9a 85 08 c0
       -3.042608549528339 -3.0652363066518222
0002d0 d9 7e 91 e1 d1 13 f7 bf bf 5d 06 c9 da 4f f7 bf
       -1.4423388301146842 -1.456995759251967
0002e0 67 c8 71 69 bb 5e f7 bf fe c0 70 3f 9f f5 f6 bf
       -1.4606279486584073 -1.4349663236753822
0002f0 8a c8 29 20 7a 62 f7 bf 4c 77 75 e1 0a e9 f6 bf
       -1.461542249333919 -1.4318951422678365
000300 7e 3c b6 cf 9b 1e f7 bf f9 41 a7 40 cb 4b f7 bf
       -1.444972812056022 -1.4560043836137295
000310 b4 70 37 80 af 89 f7 bf ef 9c 5a 98 56 08 e1 3f
       -1.471114636274291 0.5322678542769647
000320 ca fe 33 f4 1a d3 e0 3f 82 45 d5 53 b9 47 e0 3f
       0.5257696885673451 0.5087553632130695
000330 d6 b8 fa ff 26 38 e0 3f 92 c2 62 44 b5 af e0 3f
       0.5068545341107675 0.5214487395915788
000340 e2 84 f4 05 4c 8f e0 3f f1 e3 20 bd 5d fb e0 3f
       0.5174923054038596 0.5306843465724552
000350 ce 57 a0 c7 7a b0 e1 3f 00 73 33 d4 9c f8 e0 3f
       0.5527929209663343 0.5303482193517937
000360 d6 38 d5 3c 6f 04 01 c0 58 ec 28 eb ef ef 00 c0
       -2.1271652939386554 -2.117156827150705
000370 28 c9 d1 0f 63 1a 01 c0 eb c6 05 e6 52 ee 00 c0
       -2.1378842578789268 -2.1163690538895614
000380 d1 a8 71 8e 73 ec 00 c0 07 bc ea 49 52 0f 01 c0
       -2.1154547813831432 -2.1324811720619468
000390 f7 be ed 46 d7 f7 00 c0 e6 55 c2 0b 10 1d 01 c0
       -2.1210160771660145 -2.13919076144042
0003a0 cb 20 a1 80 82 e9 00 c0 56 1a 5e d7 1b c9 d3 bf
       -2.114018444936027 -0.30914970428458355
0003b0 85 d9 53 2b a5 58 d3 bf a6 b8 c4 1a 32 8f d4 bf
       -0.30228547316746585 -0.3212399732027599
0003c0 7a d8 6f be 2f 3a d6 bf c0 71 59 bb 23 45 d4 bf
       -0.3473014220938989 -0.3167199449142366
0003d0 fb c6 e9 24 eb db d5 bf 57 8a c2 59 8e ac d4 bf
       -0.3415477619629283 -0.3230319859086754
0003e0 0e 60 44 43 a8 c1 d4 bf e3 0c 0e e9 a2 53 d4 bf
       -0.32431990212489914 -0.3176047588278392
0003f0 6e 48 b0 bc b9 75 f7 3f 3f e1 66 3a f2 98 f7 3f
       1.4662415857933655 1.4748403817485067
000400 20 d6 49 39 c2 bb f7 3f f0 1c 37 39 46 9e f7 3f
       1.4833395231083912 1.4761411890956957
000410 61 a7 ce 94 f2 fc f7 3f d0 e0 a6 41 04 b3 f7 3f
       1.4992547810347434 1.481205231144532
000420 fa 27 30 05 fb 36 f7 3f 33 b9 cb 96 04 94 f7 3f
       1.4509229853306338 1.4736371889553765
000430 84 f4 4a ef 01 ca f7 3f c7 c2 00 88 dd 8a ef 3f
       1.4868182513594386 0.9857013374622391
000440 ad 8f 40 32 cd 12 ed 3f 9b cb c9 f0 c0 46 ef 3f
       0.9085451108444339 0.9773869231124651
000450 23 72 a5 5d e9 71 ed 3f 0f 1a 5c 5f 4c 2a eb 3f
       0.9201552228001372 0.8489133703704413
000460 88 3a a9 ca 45 20 ed 3f e7 ea a9 b6 f4 04 f0 3f
       0.9101895292495366 1.0012099395086638
000470 20 74 fd 69 6f 45 ed 3f 36 df c3 ac e2 e9 ee 3f
       0.914725977908919 0.9660504698103753
000480 ee 19 78 0e d9 3d e6 bf 6d 83 39 ff 96 7f e6 bf
       -0.695049789676714 -0.7030749306542085
000490 c2 a1 12 51 0e 2c e6 bf 4a ae ba 21 da ea e4 bf
       -0.6928779204800366 -0.6536684664510599
0004a0 a9 3c 21 5b c1 0c e6 bf 76 2b a5 10 39 46 e5 bf
       -0.6890570430640724 -0.6648221325971082
0004b0 1d 10 f8 43 c1 97 e5 bf 7e 63 4c c6 61 be e5 bf
       -0.6747747733611537 -0.6794899819388858
0004c0 9b eb 5d 34 be 7d e5 bf 60 42 8c 3b 6c ce f8 3f
       -0.6715994856634667 1.5503961874093406
0004d0 84 02 33 51 ae 7c f8 3f 6c 07 25 b7 89 63 f8 3f
       1.5304396793218595 1.524301257523315
0004e0 96 92 5e dc 77 65 f8 3f 22 49 ac 09 11 8a f8 3f
       1.5247725113087305 1.5337076547480781
0004f0 47 4f b8 ae 7e 71 f8 3f 15 94 97 49 5a 8f f8 3f
       1.527708704471438 1.534998214215425
000500 e5 50 b9 9c 04 fd f8 3f 41 d0 fd ab c9 a3 f8 3f
       1.5617719766642548 1.539987251130711
000510 b8 c6 cd ce 9a 06 f6 3f 6a ae 5a ba 1f f5 f5 3f
       1.3766124799989665 1.3723447112523908
000520 83 d1 21 21 51 5d f6 3f 74 48 b6 34 d2 62 f6 3f
       1.3977824491713313 1.3991262492241079
000530 63 6c 07 35 02 de f5 3f b3 fa 3f 89 5a 32 f6 3f
       1.366701323647043 1.3872933732342687
000540 2a 20 b3 82 70 12 f6 3f 5c da 0e 98 a1 52 f6 3f
       1.3795018296677974 1.3951736392752059
000550 af 10 31 37 9d 28 f6 3f 06 be ed 8e f0 62 72 bf
       1.3849155574726344 -0.00448888748256549
000560 61 d7 7d 0a 76 e5 93 bf c3 14 06 e9 e2 ab 94 bf
       -0.019430012121538612 -0.02018694445861936
000570 ee 5e 7c 16 c5 14 a6 bf 06 22 6b 72 11 1a 8f bf
       -0.04312721156582976 -0.015186439804339546
000580 27 88 11 93 40 65 a1 bf 9f 33 ed bf b0 57 98 bf
       -0.03397561831731393 -0.023772012438076136
000590 1e b6 a1 c2 a0 6d 74 3f 54 26 7a 01 b0 07 80 bf
       0.004987361879199818 -0.007827162785605392
