weight2fornnl1.npy (npy, 62800 bytes, 1 tensors)

array f8 [784, 10]
000000 4b c7 6e 17 2c 89 a9 3f 6a 4c 4e 2e 1f 9e b8 bf
       0.049874666080894935 -0.09616274719728471
000010 61 6a a2 70 83 07 d2 3f bb 4b 90 ca a2 1a 97 3f
       0.28170858382660496 0.02256254540777623
000020 d8 0c 28 78 ee 9d d0 3f e9 b6 ec 14 88 91 c0 3f
       0.2596393750574868 0.1294412710353108
000030 0f eb 62 ef 80 a0 c4 3f 11 99 d5 a3 13 01 d2 3f
       0.16114818276204132 0.2813157176918973
000040 36 3b 8d cc 7e b7 d7 bf 8e b0 fb 22 70 e5 de bf
       -0.37057466483831847 -0.4827537862427186
000050 60 53 63 34 e8 90 b7 3f 0d 00 06 b6 08 05 ad 3f
       0.09205485610011754 0.0566790315815525
000060 29 be 02 5e 2a ef a6 bf 93 2c 11 ff e7 48 e2 bf
       -0.04479343793479657 -0.5713996869830161
000070 f5 86 ee ed 7c 19 d2 bf 82 d3 fa 5b 99 cf b5 bf
       -0.2828056644012656 -0.08519896026230181
000080 2f 21 c5 e4 27 ee bd 3f 51 cf d8 4c 69 fa c0 bf
       0.11691521964269634 -0.13264194729128545
000090 e8 56 6a 2b 9d b7 d7 3f 36 dc 26 04 6c 9a e0 3f
       0.3705819057444004 0.5188503342714117
0000a0 a2 b6 d4 ed 43 d8 b8 3f 2b f0 9f d2 67 28 d1 3f
       0.09704994732302422 0.26809115952323975
0000b0 f1 83 ec 63 54 89 c1 3f 01 65 3e 5a 24 29 c7 3f
       0.1370034683141337 0.1809430542605597
0000c0 ff e3 5f 90 86 f0 9a bf 15 28 4e 87 bd b9 d1 bf
       -0.026308157503056148 -0.2769616910305797
0000d0 58 c9 51 74 c8 23 e6 bf 4d fb 46 74 56 bf d5 3f
       -0.691868045031053 0.3398033271332011
0000e0 b2 0f 69 35 e0 ff d5 bf fd 81 3d db 13 98 c4 bf
       -0.343742420347776 -0.16089103894320536
0000f0 1f 7d b3 48 f6 a0 d9 bf 9d 7c 21 7d 11 44 bd 3f
       -0.40044934367866064 0.11431989006949768
000100 96 cc 69 b3 d9 3a d1 3f c7 cd ba ce 09 ec bf bf
       0.269216942985801 -0.12469540879356265
000110 3f 3d 4e 94 d2 ea cd 3f 63 6a 15 46 37 69 b8 3f
       0.23372871629224254 0.09535546742464755
000120 4d c5 ba 24 b7 07 d3 bf 5e 4c 14 8f a3 97 ce 3f
       -0.29734591090080614 0.23900265203755827
000130 e1 1e d0 ca 1d 41 cb 3f 56 76 e1 62 f0 79 c5 bf
       0.2129246940896712 -0.1677837832275368
000140 a7 ee b2 80 a2 9e af 3f ff 9b a6 39 d0 5f c3 bf
       0.06175716229469446 -0.1513614922998556
000150 92 f6 19 a6 94 9b e0 3f 4c c1 e8 70 c0 b4 c6 bf
       0.5189917797249157 -0.17739110482353693
000160 b9 e1 47 45 c7 9f d8 3f 9b 27 ff 00 46 d9 d2 bf
       0.38475209966375307 -0.29451131913503453
000170 53 dd 8b 40 0b c2 c4 3f aa a0 f2 8c b6 0e ba bf
       0.16217175151516958 -0.10178700390918274
000180 aa 77 32 1e de fe da bf 95 5e 6c 97 4b 42 d3 bf
       -0.42180588673533725 -0.3009213427298872
000190 36 bb 52 0a a8 68 ba 3f 2a d6 24 d2 65 5e 9c 3f
       0.10315943004637237 0.02770384879223379
0001a0 74 9e 73 52 04 4d b2 3f 63 ed 5e f8 5c 36 95 bf
       0.07148768437365921 -0.020715191516257458
0001b0 10 35 44 33 ca bc b2 bf 36 ff 1d a8 8e df 92 bf
       -0.07319320441839161 -0.018430928240831444
0001c0 71 c3 0c 1c 5e af c0 bf dc f8 b1 dc 24 d1 9f 3f
       -0.13035179490682539 0.031071258516470177
0001d0 93 78 bc 44 ed 05 c0 bf e9 7c c6 bd 0f 67 c9 3f
       -0.1251808725000428 0.198457687057249
0001e0 88 2c 6c a3 cb f5 c3 bf 79 06 cc 06 a6 85 c6 3f
       -0.1559385822259609 0.17595362979777798
0001f0 65 ec f2 8a 40 39 bd 3f 6c 99 9d a0 0d 6d cc 3f
       0.11415484802539451 0.2220780405288666
000200 69 0b 1a 67 2f 82 c7 bf 0b 88 5e 3f 31 e4 b9 3f
       -0.18366043600334628 0.10113818928815037
000210 72 50 dd 93 e1 d9 bd 3f dd 02 3c b4 7c b6 d5 bf
       0.11660585269902571 -0.33926313019769144
000220 48 2f 37 c2 8a 3e df bf dd fd 49 7c 1b 43 e2 3f
       -0.48819226232875623 0.5706918170471301
000230 4d 2f 9d d4 89 d4 67 bf 61 b5 0f 5c 55 45 a9 3f
       -0.002908963394394981 0.049357097137412216
000240 71 32 36 38 3c 38 e4 3f 14 20 15 76 69 b2 c7 bf
       0.6318646524319559 -0.18513220086811144
000250 77 14 ac b1 bb ed d5 bf 62 3c bd 97 fc ec bf bf
       -0.3426350817756609 -0.12470987991876961
000260 36 a8 9d b4 6d 6e c7 bf cd 0d 74 30 8a 26 b4 3f
       -0.1830575115121193 0.07871307070677531
000270 3e 7f 7e 8e 28 3d bc 3f 4b 4b 20 8d 87 c8 83 3f
       0.1103082034956033 0.009659823412254595
000280 bd 42 5d 03 9a 63 a9 3f 73 f7 7e 10 58 06 dd bf
       0.049588025007897475 -0.4535122071355239
000290 6c 8b fc db f4 8b a7 3f b8 a3 37 27 90 a7 f0 3f
       0.04598965821630582 1.0409089595725458
0002a0 6f d5 79 57 35 de cf bf cb 9f d7 69 7b 27 dc 3f
       -0.24896876117024244 0.43990979515228607
0002b0 68 2c 52 71 ca b0 d1 bf ee 2a 09 3a 61 81 d2 bf
       -0.27641545359137476 -0.28914671580848406
0002c0 49 ad 6e a5 82 ee db bf 10 5f 2e e5 1b 87 91 bf
       -0.4364325156736482 -0.01711696230230958
0002d0 3b 34 ae fc 0b 5f c9 bf 52 b3 18 70 84 5b c6 bf
       -0.19821309888757974 -0.17466788743458977
0002e0 e1 37 53 b2 27 46 b9 3f 6e 19 5d 68 e4 85 ab bf
       0.09872673133506239 -0.05375589155169079
0002f0 49 a1 aa 48 cd 64 8f 3f 98 32 04 d2 be ad e6 3f
       0.0153289830971778 0.7087091543085817
000300 ce 2c dc 1d bb 62 cd bf 43 bd 47 3e 7b a0 e4 bf
       -0.22957552869806935 -0.6445900169764304
000310 e4 f6 fb 7a b9 1f c0 3f 83 8a f8 d3 be 1c e0 3f
       0.12596815590943955 0.5035089626365593
000320 75 a3 50 cd 48 b3 a6 3f a0 51 26 41 b3 98 b6 3f
       0.044336581290116785 0.08826752033775742
000330 08 5f 77 d2 a8 cd d0 3f 27 d9 68 e3 4c 9a dc bf
       0.2625524573645497 -0.4469177456661719
000340 5e a7 61 c9 90 10 da 3f 06 5d 75 cb 5a 14 cd bf
       0.4072610823264905 -0.22718367514128363
000350 ff 1d 3f 39 e5 99 d6 3f 1f 25 e1 35 24 b6 d0 bf
       0.35314303007586995 -0.26111703168551686
000360 7c 59 c9 49 79 10 9b 3f e6 b4 a3 d9 6d 40 d5 bf
       0.02643002999169529 -0.33205744031768203
000370 1e db 15 e7 f9 d2 d3 3f 71 51 83 bd b8 7d bc bf
       0.3097519642537224 -0.11129336001187597
000380 e1 02 0d e5 0b 04 af 3f 9a 69 56 62 93 14 e1 bf
       0.06057774706869679 -0.5337616844802142
000390 53 3d 07 ef 52 0b ce 3f b9 9d 79 2e 67 70 d5 3f
       0.2347205798273345 0.3349855378969227
0003a0 31 af d7 76 e3 41 c5 bf f0 b1 01 42 f2 5e d2 3f
       -0.16607325842721246 0.2870450634570991
0003b0 b3 5e f0 ce 06 55 bb bf cf b3 97 e8 e1 dc a6 bf
       -0.10676615287990891 -0.04465394939675315
0003c0 05 2e 31 e8 6d 22 90 bf f9 e5 27 0f 14 35 3a 3f
       -0.015756337448960895 0.00039989223219513665
0003d0 03 98 b1 1f a2 7b c0 3f ce 3c 6e 6f 83 81 d2 bf
       0.12877298877282337 -0.28915487176795984
0003e0 03 5b 57 7b e2 bd c2 bf 21 3d a1 fb 5d 09 56 bf
       -0.14641982100030057 -0.0013450067331353748
0003f0 e3 e6 b4 65 55 f2 d5 3f 05 98 29 e9 c5 a2 e6 bf
       0.34291586811342095 -0.7073697618441207
000400 36 62 4e f3 ab 08 c4 bf 0c f9 9a 9c 0f 2d eb 3f
       -0.156514638711785 0.8492506083200921
000410 b3 6e 9d 57 a8 e3 c7 bf c0 83 46 ca 26 cd bd bf
       -0.18663505819391943 -0.11641161383023668
000420 b8 2a 8b dd 10 b1 d2 3f 16 4a 34 ae 1a b7 d1 bf
       0.29205724368209074 -0.27680079471716235
000430 aa c4 76 8f b1 99 d8 3f a5 72 11 b1 41 ef d7 3f
       0.3843807126059554 0.37397806445896215
000440 7f 38 18 a4 6b ba c1 bf e4 c8 76 10 17 93 d4 bf
       -0.13850160133774023 -0.32147766692936686
000450 8c 83 c3 df 00 4a ca 3f ee bb a8 42 f3 3b e1 bf
       0.2053834049793547 -0.5385681440292254
000460 3c 2e 27 19 9e 69 c8 bf 1f 38 cc 6b 87 9d 97 3f
       -0.1907231924836753 0.023061862902118088
000470 51 a0 b9 b4 a4 ea e1 3f 0c 9c e1 14 17 c2 e6 3f
       0.5598929910456808 0.7111926467740672
000480 81 3d 0e da 7f b2 c6 3f a3 e2 81 96 7e 9d 58 bf
       0.17732237002608645 -0.001502393361105949
000490 bf 08 5f 41 3f 00 dc 3f 02 d9 f4 73 4c 57 dc bf
       0.437515081252183 -0.4428282863986085
0004a0 79 43 7f 49 be ee eb bf 09 9b 99 72 9c 10 93 bf
       -0.8728934703341188 -0.018618053907995456
0004b0 3e 33 fd 76 69 ee d9 bf a7 94 1e cc 40 96 d7 3f
       -0.4051765119555063 0.36854572232761956
0004c0 ce 9c 09 a3 6f 96 d3 3f e3 77 35 1f f5 ee d2 3f
       0.3060568897403301 0.29583480880489627
0004d0 32 13 93 42 0d e9 de 3f a6 94 24 aa 2e 26 c0 bf
       0.4829743528501239 -0.126165230825028
0004e0 4a 4c c5 81 2d 5c be 3f 6f 0d 49 ce b5 88 da bf
       0.11859402101735941 -0.4145941271310311
0004f0 2d 40 4e 94 d5 61 ab bf b4 40 77 4d cb 8e e5 bf
       -0.05348079142925175 -0.6736809266094697
000500 0f ce 75 30 30 d1 aa bf eb 1e dd c5 98 bc 9b 3f
       -0.05237722961001278 0.027086627079625208
000510 44 66 3c a5 a3 48 d5 bf 80 90 f9 08 fe 0a ca 3f
       -0.3325585473663504 0.2034604591200413
000520 77 81 6b f1 1a ab cf 3f 44 d0 83 fd 27 57 d3 3f
       0.24740921772082533 0.3021945930224812
000530 86 2a ab 0e 3e 95 a6 bf c4 0e 8a 63 44 38 d7 bf
       -0.044107379236796126 -0.3628092739165647
000540 3e d1 b5 b7 fc 42 ad 3f 96 03 05 c3 a9 65 d0 bf
       0.05715169661098905 -0.25620502514726107
000550 ec ce de fd 68 21 d0 bf 8d 4f 14 39 10 6a d2 bf
       -0.25203919212365977 -0.28772359441904244
000560 e9 0e 90 0e ef 85 b1 3f 25 1a 5f 98 bc 34 c3 bf
       0.06844991784606304 -0.15004689636244098
000570 50 83 b7 c6 de 40 d9 3f 48 cc b2 17 46 5b e1 bf
       0.3945843639940465 -0.5423918211803391
000580 b9 36 f8 6b 01 27 a3 3f b2 ca 9c 68 55 17 cf 3f
       0.03740696375835512 0.24289958580046328
000590 ae 80 c9 7f d4 8b a0 bf 5f 2f 01 31 fc a7 d5 3f
       -0.03231681880856861 0.3383779982148009
0005a0 09 01 2d a0 81 7c b2 3f eb 63 2e 35 4a 93 ca 3f
       0.07221231613675995 0.20761993023623346
0005b0 fb b7 0e dc cb ae d3 bf b5 9c bb 37 6d e0 ab bf
       -0.30754372110357026 -0.05444661431629908
0005c0 de d0 72 14 23 54 d8 bf 98 42 bb 4e 1d 76 bc bf
       -0.3801353168194178 -0.11117728397517579
0005d0 1d 2b 39 ea ae 55 93 bf 73 68 08 f6 31 c0 c8 3f
       -0.0188815432032171 0.19336533082315874
0005e0 b9 e2 07 ad 10 1c c2 bf 0d 21 da 67 6f 2a c9 3f
       -0.1414814801098794 0.19660751887227726
0005f0 11 40 07 02 20 a0 b0 bf cd 97 fa 7e 4d 29 c1 bf
       -0.06494331407088817 -0.13407295894756857
000600 d1 ab 91 96 78 15 e6 3f 6d ff e1 a0 74 25 b4 3f
       0.6901209774781539 0.07869652679255319
000610 63 eb 4e 83 1a 79 dc bf 9e 92 af 21 8d e4 d4 bf
       -0.4448915750796713 -0.32644966401702813
000620 f6 8c f2 16 0b 23 ba bf 20 44 73 23 82 62 ca 3f
       -0.1020972186111527 0.2061312363717045
000630 e0 53 4e 58 2f e3 c7 bf 2b b6 91 e4 93 11 91 bf
       -0.1866206341916543 -0.01666861612868879
000640 2c 55 51 f1 e3 3b b4 bf 6e b5 61 80 84 69 91 bf
       -0.0790388549952083 -0.0170040801389652
000650 48 b8 11 44 1f d1 b8 bf 17 b3 d7 6e 91 3c da bf
       -0.09694095050665041 -0.4099467832991634
000660 9f cd 57 99 fe ee ac bf 08 fe c8 1f b7 ed ca bf
       -0.05651088353979649 -0.21037949611671558
000670 82 56 8c 95 d9 af b7 3f e1 26 e9 5e 19 ca c9 3f
       0.09252700711325626 0.20148007520975056
000680 69 26 ab 4a f2 9f db 3f c1 2e ba eb 14 f8 c9 bf
       0.4316373566804033 -0.20288335332985777
000690 31 8a 48 9b 35 bf b0 3f 3d 42 b5 57 ea d4 bf 3f
       0.06541762391183494 0.1243425811892473
0006a0 be 2e d5 8b d5 43 d4 bf 3b 41 a5 4c c9 ae c9 3f
       -0.31664026885549024 0.20064655535180428
0006b0 9c e2 b4 cd 47 8b ca bf 4f 46 ea 2a 8c d6 c2 bf
       -0.20737550300852525 -0.14717247100320427
0006c0 f4 2a 6d ee 45 23 ac 3f 1f ed 17 7b 1c 56 c6 3f
       0.05495661292532886 0.17450290689871736
0006d0 00 1d 63 7e ea 0b c6 3f 65 44 90 aa aa 3d c6 bf
       0.1722386471867381 -0.17375691726968792
0006e0 d1 74 44 60 86 af b4 bf 2d 31 5e 27 a6 ab cc 3f
       -0.08080329752233985 0.22398831293356505
0006f0 3d ae ce 56 6a 34 c9 3f 49 c9 4a a6 99 fd d2 bf
       0.19691209067001295 -0.2967285274454708
000700 3d c6 2e c2 79 0b b9 bf 15 0f 2b 57 dc 2b d4 3f
       -0.09783135405339123 0.31517704498786375
000710 f6 76 9f 02 20 58 b1 bf 94 2d 31 2e 41 d8 cb bf
       -0.06775093139682639 -0.21753706698869435
000720 fd 75 e3 69 b6 17 bb bf bd 8c 44 29 30 f4 b0 bf
       -0.10583057484787868 -0.06622601516260125
000730 62 31 52 a7 fc ae cd 3f 5b 27 7a c1 f6 5c 38 3f
       0.2319026772496598 0.00037175201712412947
000740 2b 20 c1 6d b0 6b d1 3f 1c 99 d6 00 29 ef a9 3f
       0.27219782560541955 0.050652772285774555
000750 21 b0 b7 5c 14 c1 81 bf 63 a5 4d 0a 8c 66 e0 3f
       -0.008669051246180061 0.5125179482685492
000760 7c 99 fa 55 81 6b cc 3f e6 0a 1e 10 42 b1 e0 bf
       0.2220307988947744 -0.5216379465858523
000770 8a 4e 3e 4a 28 4d d0 bf 06 76 f7 13 c8 db dc bf
       -0.2547093129189554 -0.4509144015299572
000780 2b cd fd 3d c1 fe c4 bf d5 a5 bb 62 5f 17 d4 bf
       -0.16402450110363395 -0.3139265503110356
000790 b2 0c c5 d5 83 db 7c bf cf fb 2c 1f c2 fd dc bf
       -0.007045283299080983 -0.452988176770245
0007a0 8f 9c bc 51 75 ca db 3f 11 2f c9 81 c3 c7 d4 3f
       0.4342320726595483 0.3246926085891895
0007b0 d1 bd c8 b3 e2 25 d1 bf d5 0d 7e 3d 13 7f cc bf
       -0.267937350817161 -0.22262802603300594
0007c0 7e 88 0b 8a 4e 92 b6 3f 7c eb be 47 db 1f d6 3f
       0.08816996450653566 0.34569437033103845
0007d0 94 5f fd 0e f0 1e c4 3f dd 78 d5 3e 34 d5 d4 bf
       0.15719414455338365 -0.32551294456596996
0007e0 d8 36 a6 58 35 ed eb 3f 68 34 56 f9 ce f8 d2 3f
       0.8727061015540256 0.2964360651902269
0007f0 0c 7d 20 03 5d 6c da bf d5 3b a2 3a 8c fa e2 bf
       -0.4128639727150165 -0.5930844445409728
