weight2fornn.npy (npy, 62800 bytes, 1 tensors)

array f8 [784, 10]
00000000: ad3b f410 3486 9fbf 946a 0129 93dc b8bf
00000010: ca3e fc2c 2a96 b43f 776f b87e 01c3 c7bf
00000020: a0e6 b147 2fb1 a03f 944f cf41 9422 c43f
00000030: 26a9 3dc5 c049 bb3f 5c86 ce2f 62c2 af3f
00000040: c792 be7f a265 ac3f 9381 fd06 931a b43f
00000050: 7f03 6b62 ac19 b83f af87 90dc 17ab ae3f
00000060: bcf3 7c55 d48f b0bf b141 bf3f eb82 62bf
00000070: 62a4 dd6c 2c41 a4bf 0fa8 bc00 1087 ac3f
00000080: 11bb 4484 4218 a2bf d71a 86d4 6b27 a7bf
00000090: 2975 5f5c 23a7 21bf 00be 96d8 41eb 933f
000000a0: 368d 5f29 4c14 cc3f 5053 1d5b 305d debf
000000b0: 3669 4ae8 1213 ccbf a63e e03e f71a e53f
000000c0: 217e da66 3a9e cfbf f0d7 bed9 a5aa d63f
000000d0: 058a 7831 21bf f5bf b448 c9e2 07a0 b03f
000000e0: df80 5dcb 87c5 cb3f 9356 0fd7 26b8 d03f
000000f0: 3c3a 0ec6 6549 a8bf 69d8 90f9 8606 b93f
00000100: 034b 1222 1793 b13f ce5a d1e9 f3e0 c03f
00000110: d175 1a80 0de6 813f f85a b2c0 afdf bb3f
00000120: 38bc 6b93 6756 ac3f cac5 17b9 355f bcbf
00000130: e247 bb2d 5b7b 9abf 5248 0085 4a81 b8bf
00000140: cf64 d8cb 878e e9bf d2d4 11ad 3f14 c8bf
00000150: 3ed6 a86b 8fb0 e33f 9c82 31ef 9be6 f13f
00000160: 0424 653f 8d36 b2bf d43b 889a c855 d5bf
00000170: a7d0 8c87 9e41 b33f a3c3 bf2b a668 dfbf
00000180: 1e7f fa50 0ecf d7bf d239 e2de 3fda b73f
00000190: 1a81 5a8f 578c 773f 7529 9396 5247 ac3f
000001a0: 4081 5905 020c af3f 8786 a10c 628c 99bf
000001b0: 981e 0709 4d3e 90bf 4e15 bdf7 a252 703f
000001c0: 79b9 3ea6 d3bb abbf b87f 504a 347d c2bf
000001d0: 1a71 a0c1 c542 9cbf 805c 9ee7 7b19 cb3f
000001e0: 44b5 04cc 40ef a3bf dd49 1727 ca28 9cbf
000001f0: c03c abc1 fe67 6b3f 5841 8c9e 8aa4 ab3f
00000200: b64d 73f9 ff25 95bf d70e d7c9 f8fd ab3f
00000210: 6887 c075 48d0 b43f ad44 0852 ab57 843f
00000220: 6dc1 4153 b983 aabf 81b1 7cd0 cf12 b53f
00000230: 623b abfb 28f9 de3f 97eb 59df 3a5a d2bf
00000240: 603f eb51 2127 dd3f 59ba dca4 ff78 b2bf
00000250: 6bd4 f4e1 5565 cabf ea30 d74a 027d 893f
00000260: a587 9572 c07d d43f 98e5 1333 5dba d4bf
00000270: a5be e25f 811e a6bf 3b60 d99a a1d6 d2bf
00000280: 2f17 0825 c6bf dabf 8bb6 e2f0 e7bd d5bf
00000290: 9644 79c1 d1cf d43f 78bb bc05 28a0 e03f
000002a0: b3bc fc36 42ee d0bf c6e6 00a9 828d bc3f
000002b0: 8ea1 114b 128a cfbf a5a7 020b 24b6 c43f
000002c0: 1d52 d68c a168 b6bf 17ff 73e1 e81f b43f
000002d0: 515b e065 defe 98bf 68e9 d100 2954 afbf
000002e0: ead2 1012 68a2 b43f c199 87e7 e6b1 a73f
000002f0: ea40 fb0a 4c9d b23f 6578 6616 953f b6bf
00000300: d7b9 8ff8 fb73 9fbf 4dd5 50de cea6 1b3f
00000310: 4cc5 83b8 0891 9d3f c036 e29b 1a0b c23f
00000320: 0887 a88d 8fc7 a03f c73f 3c1c cb54 e63f
00000330: 044a cad7 04b6 c13f d639 3d32 e2cd ccbf
00000340: aac4 0d21 bf5e d63f ba84 0edd 5ac2 d3bf
00000350: 83ce 27fb 3901 d9bf f53b 5f81 fc2a dfbf
00000360: d88e f8e5 fbd5 e53f 6edc 44b3 a8a8 e2bf
00000370: 667a 9f85 1cb2 c93f 4367 9554 8237 a2bf
00000380: b950 fbff c57f ae3f 13eb 1926 b604 9b3f
00000390: e715 089c 0553 b83f 0b38 05ad 850f aebf
000003a0: 4758 e1aa 02c1 b03f a025 3e95 502a b43f
000003b0: a63f d4fe 968a 69bf cf67 d0ac 35aa c1bf
000003c0: 40de 638e 304a bebf d526 7426 f974 babf
000003d0: 2033 f7bb 7554 9bbf 53db db06 4a92 b0bf
000003e0: 0992 c66b 88eb cd3f 0a77 4a25 a31b c13f
000003f0: fc5e b057 08e7 c03f e2db 3c78 d476 d1bf
00000400: 42f1 41a9 e08b 90bf 6c53 3035 68a0 bb3f
00000410: 9e5c 0064 c8fb be3f ba1d 813b 4346 e5bf
00000420: 0423 27a0 cddd a7bf 16ed c14d e8d2 d4bf
00000430: da95 d893 6789 e03f 12ac 7e28 605b d7bf
00000440: 0baf f2ec bb2f cd3f 9f86 4153 04e3 bc3f
00000450: f67b d5db 0689 b3bf 9eca b273 a493 c23f
00000460: ba04 f5b1 3858 a93f a55b b25a 918d 9b3f
00000470: 5720 d458 47a3 a5bf 4abb 41e2 867e c43f
00000480: d5ce 685e c8b3 b23f 4182 b2af ee7f b03f
00000490: 3378 af98 7580 c03f 7653 a810 b83a 8dbf
000004a0: 9e5d ebfb 9926 a83f 29e9 716c 61d7 b2bf
000004b0: 712f adb7 944e cfbf 70ac befa 2c06 d2bf
000004c0: 6e55 4be8 aad9 ec3f 1cb2 28c0 bb48 c1bf
000004d0: 56ae 466d e62c b53f c193 ee90 9359 c13f
000004e0: f592 3c87 aac5 c5bf cbb8 595c 52f3 cebf
000004f0: 0a75 b67a 0c81 d8bf d4ca eddc 14d2 cc3f
00000500: 536b 01cb 95e7 d93f d459 a99a 7cd3 da3f
00000510: 09e3 4209 efca d7bf b998 4b93 2b6a cbbf
00000520: 6e0e b575 ba71 d93f 7777 37b9 0704 d43f
00000530: 9c89 1bfa 5ed8 d6bf 94cc e625 55bf e6bf
00000540: 089d 1335 4e69 b4bf daef 5554 2f7d a0bf
00000550: d554 b7d2 0794 c93f 1898 cb63 98d6 eabf
00000560: c333 ef11 6695 e7bf 3466 97b3 a18a dfbf
00000570: ba11 29e4 8bd1 93bf b280 a29b 1993 9a3f
00000580: d123 b679 db1c d83f 190d 4f7f 62dd dc3f
00000590: 1c28 3543 726a e33f ee12 aa20 5f08 cd3f
000005a0: 159c 2e23 05dc b7bf 586c 2e34 0707 e9bf
000005b0: 49a8 fb61 7a23 dbbf 7b3c b8d3 68ec cc3f
000005c0: 3996 ac6b d7ed d0bf 850a 4ec4 076a b83f
000005d0: 4c26 e5c2 8b19 d53f 46ad d33c 420a d53f
000005e0: 2b94 0928 7be5 d1bf a717 f053 1d1c df3f
000005f0: 043b 02f7 ea6d efbf 5d22 4848 4f27 d4bf
00000600: 79d3 e5be 78d1 ea3f f635 dc2d 7058 ca3f
00000610: 3649 9366 9358 c1bf 0196 42b5 e450 b8bf
00000620: e5ac 4256 c41a d83f a043 96f7 3897 dcbf
00000630: fb3f 5739 d650 c43f c2e7 9049 cb90 b03f
00000640: 43c7 ae8e 3098 983f 1440 1864 de8d ecbf
00000650: f618 46e2 9901 d1bf 9aba e13c 566c db3f
00000660: 7e6a 39a4 ea9b 9ebf 4d6a 1c29 5e98 cc3f
00000670: 44dd 3ead 2d3e a13f 7b73 e47c 35b7 793f
00000680: 17d8 fe0f f846 b23f 71a9 7145 16fe 933f
00000690: 711a f79e 547d b63f 22a3 a836 e19c e33f
000006a0: 43f3 42b5 dab0 d8bf adab 85c1 60bd e13f
000006b0: 626e e941 835a e4bf 3271 854b 9469 c9bf
000006c0: c242 7f16 676a e0bf c2bc 1493 b1de c03f
000006d0: 62c5 a25e 0281 a6bf dfbe 6a47 a145 d53f
000006e0: 1cbc 1c7c 10b2 b13f 967a 39e0 477d d3bf
000006f0: 7ac8 e892 17a5 d13f c10c c623 7b79 d43f
00000700: 06db 4d5a deec d13f fadd ecd5 2807 b3bf
00000710: 97ba 04e4 a96a b3bf d933 3077 7e0a e6bf
00000720: ace6 8e71 70f9 91bf cc39 893f ac39 313f
00000730: c728 d390 dc3e bc3f 4738 633a f0a8 91bf
00000740: b2c1 cbc7 9c6e a3bf 8d45 7480 aa9b abbf
00000750: aef4 669d 3f73 b13f 4852 a120 8f13 aebf
00000760: 6908 a35e 11cf b93f e02f ce00 5d17 54bf
00000770: 91d9 b9b1 6fdc a0bf 8629 a898 6db5 92bf
00000780: 82be d079 eace e3bf b914 5583 6aa9 d33f
00000790: 2f6a 092e 6ff9 d1bf 262d 0336 b4f6 c5bf
000007a0: 0dcb 7f7c 0705 dbbf ce7b ada5 2e0c d03f
000007b0: d451 c3a3 75e3 e2bf b585 a2a4 402e df3f
000007c0: 5004 772b a7d4 43bf 27e1 f181 3ef9 e83f
000007d0: e431 71ee eaf2 e5bf a4e7 1db9 5ec4 d2bf
000007e0: 58c2 b293 8089 dbbf 0f2e 07aa 121a d13f
000007f0: 6ec1 4a25 f600 d13f 969c ebf6 9c49 a4bf
-0.030785382780830584 -0.09711570502387651 0.08041633222841962 -0.1856386059524728 0.032601811887571275 0.15730527127618343 0.10659413161707629 0.062029903732093244
0.055462911695291654 0.07853049202595334 0.0941417446401953 0.05989908759535411 -0.06469466292487785 -0.002259692640997645 -0.03955973462036223 0.05571794518466799
-0.035341337820105186 -0.04522263497624628 -0.0001346808114125822 0.019452122540029038 0.219369430734426 -0.4744377984800865 -0.21933208792035835 0.6595417240186705
-0.24701623937743114 0.3541655184193351 -1.3591625149207414 0.06494187628530562 0.21696565084403738 0.2612397289461594 -0.04743497889204604 0.09775584786334125
0.06865067083189662 0.13186501423725477 0.008739572021393112 0.10888193563947002 0.05534671473093805 -0.11082778710240074 -0.02586119143126798 -0.09572282549950842
-0.7986487370827947 -0.1881179423395794 0.615302763245104 1.1188010543338924 -0.0711448936246058 -0.33336081591636213 0.07522002038314445 -0.4907622744786357
-0.37201269062096454 0.09317397300239996 0.005749074965621293 0.05523164833137432 0.06063848796179849 -0.024949581166203074 -0.015862659145368413 0.0039850583960448615
-0.05416737942083478 -0.14444593075404355 -0.027598466818845237 0.2117152100515547 -0.0389347313924682 -0.02749935020058013 0.003345487185789503 0.053989726881016054
-0.020652770614857117 0.05467202628963513 0.08130314707571318 0.009932840767790852 -0.051786223805609356 0.08231829490677535 0.48395752503431855 -0.2867572003521501
0.45551331519981453 -0.07215879225689416 -0.2062175133993692 0.012445466908410602 0.3201752776131975 -0.32387475956019207 -0.04320148749809264 -0.29435005304322076
-0.41795495621078066 -0.33971594356521767 0.32518428701320923 0.5195503341727621 -0.26454215402459197 0.11153427721083195 -0.2464011065051292 0.16180849588027715
-0.08753404320152254 0.07861190323091836 -0.024409747093240345 -0.061188966131299705 0.08060312691743446 0.046279159319783776 0.07271266239263566 -0.08690769001847938
-0.030715882345185932 0.00010548246025695214 0.02887357355297597 0.14096386538988348 0.03277252773501799 0.6978507567855495 0.13836727654104675 -0.22503306820949714
0.34953287341984185 -0.308737483859726 -0.3906998589220409 -0.48699867853150575 0.6823710910434455 -0.5830882550570899 0.20074802898939764 -0.03557975084795697
0.05956858396317117 0.026385160518184025 0.09501681384434556 -0.05871217476907028 0.0654451052845114 0.07877067226049528 -0.0031178425912301187 -0.138006886846425
-0.11831954456635518 -0.10334737004100288 -0.026689376447211477 -0.06473219554378078 0.2337503935097092 0.13365592308849045 0.13205055505454044 -0.27287780515638194
-0.01615859063211756 0.10791636751703287 0.12102940026703599 -0.6648269808001068 -0.04661409931174457 -0.3253727683401889 0.5167730224244977 -0.36495212511607733
0.228019228646524 0.11283900292030545 -0.07630961291350488 0.14513068818412916 0.04950120136573717 0.026907225762069626 -0.04226134261449548 0.16011129424756582
0.07305576615254535 0.0644520930241095 0.12892026858657032 -0.014272153862330699 0.04716950607479052 -0.07359894654829148 -0.24458559959964135 -0.2816269348792906
0.901570752811194 -0.13503214724313828 0.08271637122987249 0.13554615570788367 -0.17009479144430598 -0.2418005896501597 -0.3828765104643287 0.2251611784700659
0.4047598345256819 0.41915812591233004 -0.3717610922281414 -0.21417755787041928 0.39756642813538334 0.31274598205151655 -0.3569562380272602 -0.7108560314431025
-0.07973183437171738 -0.03220508484352509 0.19983003414987502 -0.8386957120062588 -0.7369871473580293 -0.4928364042112634 -0.019354043770606323 0.025951767086213003
0.3767613113964759 0.4510122531175554 0.6067439377450259 0.22681798071803122 -0.09320098980843768 -0.7821079272429285 -0.4240404087892143 0.2259646447932687
-0.26451669230513947 0.09536789457892254 0.32968420059896597 0.32875114383815107 -0.2796314135542299 0.48609097668701867 -0.9821677040471006 -0.3148992734791472
0.8380702713462674 0.2058239196707487 -0.1355156184059269 -0.09498433518691486 0.3766337244403089 -0.44672989061751345 0.15871694373936393 0.064709382496317
0.024018057545340154 -0.8923179583525802 -0.26572272393276763 0.4284873575733542 -0.02989164950700251 0.22339989669201757 0.033677508733883005 0.006278237282711592
0.07139540091051831 0.019523952473187337 0.08784989243495446 0.6129003589204312 -0.3857943315631937 0.554367425892783 -0.6360489165630947 -0.19853452384530496
-0.5129886092564322 0.13179607087793072 -0.04395301251623597 0.33237487768472634 0.06912329702457537 -0.30452153107572977 0.27570142122852526 0.31991461270827065
0.28008230990182914 -0.07432799551758498 -0.07584630791527967 -0.6887810066124259 -0.01755309765915196 0.0002628369834710958 0.11033419166338652 -0.017246011317915835
-0.03795328082003681 -0.05392201250118509 0.06816480248285714 -0.05874297402684597 0.1008158546492567 -0.0012262733682488688 -0.03293179554468673 -0.01827021831744837
-0.6190082911688963 0.3072153360884147 -0.2808492612436195 -0.17159130704235642 -0.4221819606602118 0.2507435434289932 -0.5902660559173065 0.4871980293047174
-0.0006051841982569559 0.7804253137574378 -0.6859030396531662 -0.29323547437490505 -0.4302674715391155 0.2672163639478819 0.2656836857013535 -0.03962412370838668
