weight2fornnl2.npy (npy, 62800 bytes, 1 tensors)

array f8 [784, 10]
0.1053983080809143 -0.083931681803574 0.35754468439238735 0.4863029135880486 0.19896703518649728 -0.022761205690932904 0.2627427893199974 0.11781064183609787
-0.4749801205502288 -0.7320424504562876 -0.23360177730851964 -0.17913168170394786 -0.15107208168136066 -0.19335487642374463 0.18312014139909122 -0.23670300321281235
0.15945847146377848 -0.3444319215022505 0.39028408306186807 0.640250307637815 -0.1497949640182287 0.360183073879065 0.24520081153011136 0.393451643454806
-0.24613256962657706 -0.17675062116919749 -0.6857091027158329 0.07220863381416591 -0.24416145940308304 -0.002678074399348059 -0.6486806869065443 -0.06647929766107767
0.6117186662194959 -0.41218746040310866 0.47006466803667696 0.27337736548592095 -0.3041795185226942 0.2253797010871786 0.020343721158352812 -0.010686960114639314
0.12997950260646773 -0.09230759543716563 0.8493549233494917 -0.3426833835572869 0.3905272262697666 -0.363445268188896 0.03562457577981087 -0.18331419902239443
-0.5983154871009941 -0.11686482917916306 0.020212795687811532 -0.005948859779429867 0.0701889914624211 -0.047708043312744496 -0.025355035451502216 -0.0809719296048872
-0.05188875261061372 0.19615035817047335 -0.09251667819861797 0.07611408420854333 0.03394385804012453 0.02146573512752342 0.0673042030740371 0.21967849885651347
0.12815232618293476 0.1474276867579208 -0.06455936445037054 -0.4079747539528977 -0.39208304429774377 0.3682537345937476 0.016624684540666998 -0.0513550168967104
0.9208562694642835 -0.1247422520044778 -0.16274197443525817 0.03181951165556502 -0.33097004589336254 0.2685392700096009 -0.1989971012881136 -0.33128621024044913
-0.014204724081519413 -0.45126478833587313 0.07197679469768414 1.5086600121779268 -0.5846834487523342 0.3904107972059779 -0.5485989461863746 -0.4589685167927471
-0.07070024235669671 0.0251771101319864 -0.23864164397296372 -0.16038626802158382 0.029088386273434373 -0.04607785628106909 0.08797274703072858 0.8884701216736312
-0.21996131916044082 -0.9096530281159203 0.44607060071081645 0.26099859291155686 0.10640389414924194 0.3747104006938526 0.5527198091047514 -0.8228692884398238
0.05561930080507253 -0.20057798187365616 0.3397618595473724 -0.3498540316143064 0.1989009458102018 -0.3324640396735342 0.14099883379593378 -0.1005801573412485
-0.08806369708245583 -0.6284858842058806 0.21356387051578393 0.19011516270689924 -0.19735276689655262 0.3836686337560594 0.14369306648122368 0.18329035324994764
0.16370276788203686 0.13193617656371043 0.24832011216902197 -0.5275191009856379 -0.05368673604547466 0.07719009841668545 0.41642760417747443 -1.0093142762111322
-0.2672586600139108 0.8245530505637574 -0.15727781555336823 0.005997286928446849 0.211330441064177 -0.23399678186848977 0.1513154749039651 0.4957043917353671
-0.1707527938677106 -0.44591955503362335 0.3226052750780995 -0.47271760245114997 -0.1958640659980459 0.1843793807634601 0.22750662943032793 0.6349172674499894
0.3227792530983601 0.1299525652533357 0.5797853159551246 -0.5053219820892577 -0.7083889768227476 -0.3215659920605139 -0.3475843142447264 0.4052232536250758
0.27935127713627594 0.5367139764914578 0.38281420706618813 -0.31094870824951426 0.04390962521931235 -0.4194689570604683 -0.34161438937860783 -0.32043645046466707
0.12837916129044424 0.13403477093229949 -0.5550819537996695 0.39527727049404837 0.07278733738525399 0.4067157315671627 0.11188314651018673 -0.46013798070124856
-0.29014621872899776 -0.1355960657805098 -0.02342935379071768 -0.502457556972425 0.2441583487446597 -0.49246550745853535 0.34075006835665594 -0.6937818842633942
-0.09247390516544708 0.5260102498507512 0.21353751997404632 0.31371958792859767 0.3100931342164325 0.2535115845163421 -0.22238229508160465 -0.1518513965628075
0.019366763060575862 -0.07656495615517946 0.047434123664699054 -0.0812510742248779 -0.5558916295532945 0.1444626679519823 -0.21985302381806138 0.052514275220216323
0.6496721612993687 0.2650691804098164 -0.4915214461781728 -0.23788716999931764 -0.13729064970721788 0.3731153463623179 -0.2807900034320727 -0.2468920312391081
-0.02619510758074277 -0.15577441945537265 0.17760895079108388 -0.8370273125540356 0.342590465203987 -0.16625988371576128 0.02011488971098277 0.326981151785892
0.21092422134200892 -0.20894869990160017 0.33089415665465644 -0.015688210334876263 -0.47513243678714856 0.023496055477620622 0.02262145882502298 0.03155945497471574
-0.13741042318276017 0.18471880260210533 0.5232525440578971 -0.5364205535517669 -0.09120382469678921 0.27811217980528297 0.019942314140989213 -0.7899257514173817
-0.1613213697517951 0.4041522224296046 0.09604499375695917 -0.3846038161653969 0.28721627699930036 0.16256186768351696 0.06435199148994637 0.023832144320475764
0.7574132995734465 0.03177066165986729 0.07851480377010428 0.6036013051053895 0.14077230079642733 -0.8165297615377983 -0.358095282210905 -0.4767003176953569
-0.3347153165333094 -0.26032486673640537 0.0404642693243877 -0.38603043517262964 0.5463402541187523 0.26254094151330926 -0.20147353423369743 -0.2038559586508271
0.035572186395810695 0.28683057652489935 0.08095334969519441 -0.1742599713526436 0.8975333376394001 0.590745275003727 -0.3321833440856271 -0.7459096658617407
00000000: e6e1 422e 62fb ba3f 2ed3 71f4 8b7c b5bf
00000010: 85bb 9419 03e2 d63f 09da 7341 961f df3f
00000020: ccd5 8d76 c077 c93f 2987 3da8 b64e 97bf
00000030: c4e8 d821 c7d0 d03f 158b ce95 d628 be3f
00000040: 0fdb 0005 1366 debf 63ca ff49 e46c e7bf
00000050: b5ed e9bc a9e6 cdbf af47 4c75 c9ed c6bf
00000060: a87d 1479 5456 c3bf a58c 6143 dabf c8bf
00000070: 9e24 4615 7b70 c73f 58fe d4b4 484c cebf
00000080: ede7 009c 2269 c43f 1d3d a32f 2c0b d6bf
00000090: c39a 3917 6afa d83f 0ade 9136 ee7c e43f
000000a0: 3d2a c83b 7b2c c3bf 9488 b84e 3d0d d73f
000000b0: 06bc 3c7d bd62 cf3f b688 4ccd 4f2e d93f
000000c0: 5967 83a4 4581 cfbf ec14 bcac c39f c6bf
000000d0: fc7c 5737 54f1 e5bf a37e b8d8 437c b23f
000000e0: 4a39 8ac5 ae40 cfbf c43c c43e 54f0 65bf
000000f0: fdee f9ff fdc1 e4bf 9bbc 5089 c904 b1bf
00000100: c57e 3806 3393 e33f 5d2b 9083 4761 dabf
00000110: 793f 0e1e 8a15 de3f 86a2 0ec7 037f d13f
00000120: 7ac0 0a5f ad77 d3bf 1b04 adf6 3dd9 cc3f
00000130: c05d 3704 fcd4 943f 7cfe 7c81 0be3 85bf
00000140: 142d 6c18 2ba3 c03f da34 9377 78a1 b7bf
00000150: e671 4f60 ea2d eb3f 08b7 5049 86ee d5bf
00000160: e9ad 41e8 65fe d83f e876 30f1 af42 d7bf
00000170: 87fa d067 623d a23f 84c8 d8f4 d676 c7bf
00000180: 2440 3985 6625 e3bf b78b 607b daea bdbf
00000190: ff6f c2c1 a9b2 943f aedf 37e3 d45d 78bf
000001a0: 69cd dede e7f7 b13f 739b 914b 306d a8bf
000001b0: c665 36a0 abf6 99bf 8008 8c8d 93ba b4bf
000001c0: fa52 fc9e 2991 aabf 696e b876 741b c93f
000001d0: 4097 324b 2caf b7bf a5d0 706e 367c b33f
000001e0: bb63 5de0 1661 a13f 0fe3 6d19 1dfb 953f
000001f0: db19 1627 d93a b13f 808e 1cd0 6c1e cc3f
00000200: fa56 eea0 4b67 c03f d339 9312 e9de c23f
00000210: cd02 f766 f686 b0bf df90 7424 421c dabf
00000220: a2cb 247b e317 d9bf cd70 ad1c 7891 d73f
00000230: fc48 a2b1 0f06 913f cf21 1d6c 344b aabf
00000240: 184d 3591 a777 ed3f 2ce3 c9b4 1bef bfbf
00000250: 3c65 f1a0 bad4 c4bf 39e5 dea3 a54a a03f
00000260: be53 c4fc 9c2e d5bf 3f82 9855 bf2f d13f
00000270: eaff 03ad bc78 c9bf fa4d a613 cb33 d5bf
00000280: c5d7 07cb 5d17 8dbf c04a efb4 85e1 dcbf
00000290: 5026 4c3b 126d b23f ff64 51ae 7823 f83f
000002a0: aaeb 5c10 bab5 e2bf 5151 8091 7dfc d83f
000002b0: 87b2 8f60 1f8e e1bf b42e 617c bd5f ddbf
000002c0: f1c4 bd3c 6919 b2bf f9a9 7f42 07c8 993f
000002d0: 50ed 2934 cf8b cebf 2baa f087 8987 c4bf
000002e0: 0686 f38e 58c9 9d3f c10d 984b 8497 a7bf
000002f0: c2ae 6fc7 6185 b63f e1f6 81e4 586e ec3f
00000300: 20ed 1648 b127 ccbf 4ce3 ceaa e01b edbf
00000310: 59a4 70b4 6b8c dc3f 9ddb 3671 33b4 d03f
00000320: fbbc 891d 493d bb3f afdf 1c55 41fb d73f
00000330: c499 fe73 e1af e13f 2f6b 57f9 f154 eabf
00000340: 86e5 f70b 227a ac3f e0f6 3810 8aac c9bf
00000350: 75c8 cb86 a8be d53f 800f 0a2a 0264 d6bf
00000360: 00fb b210 9675 c93f aa9b 5f40 1747 d5bf
00000370: 0fbe f6f1 3f0c c23f 0a3e 6806 9fbf b9bf
00000380: 851a efaa 578b b6bf 492e d56d 8e1c e4bf
00000390: eb79 bc97 0f56 cb3f 8561 2693 b155 c83f
000003a0: 5643 ccff da42 c9bf 02ee 9ee2 068e d83f
000003b0: 9772 99ce 8864 c23f 76be 70ec 0e76 c73f
000003c0: 20b5 2859 36f4 c43f b20d c0dd 48e3 c03f
000003d0: 793d 5a14 f4c8 cf3f d4f4 d7bc 6fe1 e0bf
000003e0: 3bae 16ef d37c abbf c851 46f4 bac2 b33f
000003f0: 3902 46f7 bfa6 da3f 5167 fbb9 2626 f0bf
00000400: 2b48 1511 c41a d1bf bfa0 3f14 bd62 ea3f
00000410: 9611 18f1 ad21 c4bf 2dfb 8e73 9c90 783f
00000420: f18b 823a e00c cb3f ce48 bf46 9bf3 cdbf
00000430: b7ad 0b34 4e5e c33f 972a bfe9 9eb9 df3f
00000440: a564 ae40 3adb c5bf ce0a 612c f289 dcbf
00000450: b58f 7e98 90a5 d43f a55b b154 0141 debf
00000460: 2e2b f6de 1212 c9bf 0ec8 3759 be99 c73f
00000470: b362 83ee ef1e cd3f e4a0 6b04 3e51 e43f
00000480: f69f f84f 6aa8 d43f 56ae e520 49a2 c03f
00000490: 214e 57ef 998d e23f 8bbe 6001 992b e0bf
000004a0: 8a9e 095c 1fab e6bf 09f7 d986 8994 d4bf
000004b0: ed27 9247 d23e d6bf 9d7f 7983 2def d93f
000004c0: 525a d92d e4e0 d13f 15c8 0aca c22c e13f
000004d0: e3c7 f228 0780 d83f 2691 2a69 95e6 d3bf
000004e0: 27d7 9788 527b a63f 9ec3 1053 94d8 dabf
000004f0: 2758 8e99 02dd d5bf dc4a cce2 0782 d4bf
00000500: ac7c 9d75 ba6e c03f 8e2d d726 0d28 c13f
00000510: 6d6b c53a 3bc3 e1bf fcf0 6709 394c d93f
00000520: 07f1 a1e1 30a2 b23f 2261 766b a107 da3f
00000530: b91d 3cb7 5fa4 bc3f 0e99 b092 e672 ddbf
00000540: 63f1 1f72 c191 d2bf ca2c ff3d 365b c1bf
00000550: eaaf 3051 ddfd 97bf 4e63 dade 2114 e0bf
00000560: a8ab 73ad 9440 cf3f 2851 3c0c 8e84 dfbf
00000570: 0be7 ec5f d9ce d53f 3dfe ee10 7633 e6bf
00000580: a143 6bae 5eac b7bf 5108 8f72 13d5 e03f
00000590: f7f4 608c 3255 cb3f a825 9152 fb13 d43f
000005a0: 2a1e 8bdf 90d8 d33f b9e8 29a7 8839 d03f
000005b0: 73de 4ae6 0577 ccbf 6a6a 0bd7 dd6f c3bf
000005c0: 89f1 e577 e1d4 933f 89c7 b4ce c299 b3bf
000005d0: 1667 b513 4949 a83f 4a8b 8fd2 decc b4bf
000005e0: 46a6 213e ddc9 e1bf b95f 2cb1 c07d c23f
000005f0: 10d6 9cd5 2424 ccbf bdb6 49ad 26e3 aa3f
00000600: abe0 bc45 1dca e43f 7069 42b9 e4f6 d03f
00000610: 498b 275e 1675 dfbf e67c a437 1673 cebf
00000620: fe00 4571 bd92 c1bf 72c2 9030 1fe1 d73f
00000630: ec34 72a2 76f8 d1bf 4151 e877 289a cfbf
00000640: cc7a 7fe9 e3d2 9abf 7d9e 8e8a 6af0 c3bf
00000650: 31f2 8fdd e3bb c63f 45e8 a880 edc8 eabf
00000660: 433e fe8e 00ed d53f 2415 99fd 0048 c5bf
00000670: 28a1 e265 ff98 943f 5b0b 555a 42ed d43f
00000680: 9b91 4c9c 90ff ca3f 613e 4fbc d4be cabf
00000690: 653b 51af 5e2d d53f adc4 48f9 9110 90bf
000006a0: f840 51e1 9168 debf 2f0e 7297 590f 983f
000006b0: a179 5d67 142a 973f 38f2 fd95 8f28 a03f
000006c0: 6788 d92c aa96 c1bf eeef 10a0 dda4 c73f
000006d0: 03e1 881e 7cbe e03f 9906 cd6f 5b2a e1bf
000006e0: 7fc3 5744 2259 b7bf 7382 3807 97cc d13f
000006f0: 191e 2b0c c26b 943f 5f63 935e 1247 e9bf
00000700: d36c 9dbb 2da6 c4bf 3437 7c48 a1dd d93f
00000710: 2f73 219b 6796 b83f 2138 1653 599d d8bf
00000720: d9d0 2561 c061 d23f 5781 a3c8 d3ce c43f
00000730: fdbc e142 5f79 b03f a2cb cc21 7467 983f
00000740: 1f26 e7d0 ba3c e83f 8e52 9a81 3e44 a03f
00000750: d4c7 71d2 8b19 b43f a204 28af b350 e33f
00000760: ec39 0da6 d304 c23f 297f c005 0321 eabf
00000770: 91a7 7c79 08eb d6bf baa3 9f0c 4282 debf
00000780: 47c6 7eca f96b d5bf 95fa 3da1 29a9 d0bf
00000790: 7b3f cf92 bbb7 a43f 15ef 94ff b8b4 d8bf
000007a0: 36b5 7d8e 9e7b e13f 1b49 6a85 78cd d03f
000007b0: c589 4580 e2c9 c9bf 0101 c0b9 f317 cabf
000007c0: dc37 6f82 8436 a23f 85b4 6aa2 6e5b d23f
000007d0: 7048 71d5 5bb9 b43f 7812 fb96 264e c6bf
000007e0: f063 87d5 97b8 ec3f 840a 8da2 62e7 e23f
000007f0: 6eea c7ed 7d42 d5bf d5af 94f2 7dde e7bf
